best_model_weights.pth (torch, 362142 bytes, 45 tensors)

transformer.wte.weight f4 [48, 12]
-0.021838013 0.014817209 0.021636864 -0.04427081 -0.011416603 -0.002387037 -0.0057506626 0.03199961
0.010564211 -0.021041892 0.012461026 0.019717673 -0.040255707 0.03179217 0.032470077 0.012117668
0.052663714 -0.043092135 0.006405627 -0.02083994 0.01321858 -0.025996594 0.0044979285 0.00022794551
0.06235437 0.03183023 0.022367904 0.008960251 0.009377246 0.057219326 0.008416632 0.027986329
-0.00474318 -0.010644408 0.01478881 -0.008911459 0.0007293958 -0.011237426 0.0095997 0.038243283
0.008744369 -0.062276103 0.037822913 -0.0083109625 -0.03200329 0.010627474 0.011153049 0.016273193
0.0025536008 -0.03645306 0.019053372 -0.013462103 0.018884176 0.014046735 -0.023602938 0.054537427
0.014870541 -0.0072742566 0.012721234 0.029248558 -0.024737803 -0.012529353 -0.026088854 0.016187204
-0.022608174 -0.013537656 -0.06825688 0.04337845 0.006870526 -0.0078450525 0.0080192005 -0.005664009
0.0064032776 0.047711954 -0.048509467 -0.02609611 0.041519523 -0.010922381 0.028376263 0.018463314
-0.014528271 0.008550845 0.008226401 0.003048239 -0.006063908 0.0075700865 0.017641729 -0.0033098876
-0.0015622667 -0.030135982 0.006436394 -0.05788767 0.019509187 0.0005268214 0.0075929337 -0.016303502
-0.03632252 0.005112082 -0.027454013 0.03197851 -0.0573753 -0.0011342182 0.0056188544 0.012951916
0.010507911 0.01806463 0.025732018 0.00050462736 0.013452547 0.010552621 0.02835518 0.016651934
-0.00665099 0.011210337 0.03050448 0.06336826 0.0054927208 0.017109398 -0.0057040704 -0.022577038
0.03756485 0.0022040098 0.009375183 -0.02218233 0.025184678 0.058401607 0.061567556 0.026916383
-0.0072093513 -0.0040191864 -0.0091259675 -0.023447484 -0.036499456 -0.048088413 -0.028041312 0.010004307
0.0018016996 0.017571554 0.0007153283 -0.02004581 0.0048494074 0.010139449 -0.0064155734 0.0016461432
0.0378475 -0.00454394 -0.0081373565 0.017909814 -0.013639954 -0.018896516 -0.029987872 -0.017403837
-0.03161891 -0.0020815125 0.021808809 -0.013106311 -0.027720265 0.022833962 0.025546161 -0.0058701523
-0.0143389 0.048500407 -0.059128866 -0.01485372 0.012289343 0.031239817 0.045337785 0.0040474217
0.024091667 0.01229308 -0.010230289 -0.022440795 -0.006818282 0.06464229 -0.030700319 -0.07318761
-0.0071288785 -0.012746893 0.012679068 0.0092814965 0.014525098 -0.007762681 0.032953974 0.03518056
-0.0010813246 -0.011206349 0.06934186 0.01461441 0.042994715 -0.025243005 0.0008419493 -0.0028242925
-0.020177882 0.021491325 0.03133214 -0.036469456 -0.02348288 -0.022177352 -0.037113342 0.016899578
0.005227152 0.013419309 -0.03482439 0.0034855215 0.022587521 -0.0014150352 -0.05105102 -0.009818291
-0.0031756635 -0.01519065 0.011646674 0.061995417 -0.0057529802 -0.016722178 0.007290061 -0.0010970326
-0.035898086 0.024376351 -0.013968784 0.010734073 0.00012929614 -0.006160925 0.053281758 -0.060810026
-0.016053353 0.020797616 -0.016933156 -0.008856323 0.026248883 -0.041782398 -0.018356146 -0.023961654
0.011184508 -0.026269333 -0.020012302 -0.00137545 0.01919417 -0.014342331 0.0024373953 0.019843344
-0.023304362 -0.011560089 0.0012673521 0.0061970707 0.013236019 0.06136109 0.06201386 0.015652955
-0.000295467 -0.014351468 0.003898933 0.0014684168 -0.023274412 0.01232374 -0.022833558 -0.022117978
00000000: a2e5 b2bc e1c3 723c cb3f b13c 4f55 35bd
00000010: b40c 3bbc d66f 1cbb 0e70 bcbb 0612 033d
00000020: 8315 2d3c 0c60 acbc 5529 4c3c f586 a13c
00000030: 2be3 24bd 8238 023d 58ff 043d 2f89 463c
00000040: e8b5 573d 6181 30bd 4be6 d13b 86b8 aabc
00000050: be92 583c cff6 d4bc 5c63 933b a804 6f39
00000060: 4c67 7f3d 6a60 023d e53c b73c 04ce 123c
00000070: 05a3 193c d05e 6a3d eae5 093c 9643 e53c
00000080: ad6c 9bbb e265 2ebc c44c 723c 5e01 12bc
00000090: ec34 3f3a 2e1d 38bc 0f48 1d3c fda4 1c3d
000000a0: 8b44 0f3c 3a15 7fbd 33ec 1a3d b42a 08bc
000000b0: e215 03bd db1e 2e3c 47bb 363c 5c4f 853c
000000c0: 505a 273b ce4f 15bd d115 9c3c 2790 5cbc
000000d0: fdb2 9a3c 4724 663c f35a c1bc a362 5f3d
000000e0: 92a3 733c e35c eebb b96c 503c ac9a ef3c
000000f0: efa6 cabc ea47 4dbc 4bb8 d5bc 079b 843c
00000100: c734 b9bc 0bcd 5dbc 43ca 8bbd 9aad 313d
00000110: 2622 e13b 8988 00bc f762 033c 2799 b9bb
00000120: 96d2 d13b 9c6d 433d ddb1 46bd 82c7 d5bc
00000130: 6010 2a3d c9f3 32bc 5675 e83c 6040 973c
00000140: fc07 6ebc d818 0c3c 07c8 063c f7c4 473b
00000150: bfb3 c6bb 7d0e f83b 6385 903c b3ea 58bb
00000160: f9c4 ccba bcdf f6bc 63e8 d23b 9f1b 6dbd
00000170: bbd1 9f3c 631a 0a3a 25ce f83b ec8e 85bc
00000180: ecc6 14bd 4183 a73b 3de7 e0bc e6fb 023d
00000190: 5d02 6bbd 0caa 94ba 5e1e b83b 4634 543c
000001a0: 6029 2c3c 46fc 933c f4cb d23c f848 043a
000001b0: 1268 5c3c e7e4 2c3c 1f49 e83c a369 883c
000001c0: 8cf0 d9bb 90ab 373c 88e4 f93c 38c7 813d
000001d0: 48fc b33b 0229 8c3c 36e9 babb 7bf3 b8bc
000001e0: 9add 193d 2671 103b 5e9a 193c b8b7 b5bc
000001f0: 1950 ce3c 8636 6f3d 432e 7c3d bf7f dc3c
00000200: 6c3c ecbb 61b3 83bb 1585 15bc f014 c0bc
00000210: 7480 15bd 5bf8 44bd e5b6 e5bc 1be9 233c
00000220: 0227 ec3a 38f2 8f3c df84 3b3a 1c37 a4bc
00000230: c7e7 9e3b ee1f 263c bb39 d2bb 66c3 d73a
00000240: fb05 1b3d 55e5 94bb 8c52 05bc 9ab7 923c
00000250: 1d7a 5fbc decc 9abc 20a9 f5bc 7e92 8ebc
00000260: d582 01bd fc69 08bb 63a8 b23c dabb 56bc
00000270: 9c15 e3bc 4a0e bb3c 2f46 d13c 685a c0bb
00000280: b5ed 6abc 5da8 463d 1c31 72bd 045d 73bc
00000290: 3e59 493c a5ea ff3c 1db4 393d 3ca0 843b
000002a0: e35b c53c ea68 493c f19c 27bc c2d5 b7bc
000002b0: e56b dfbb 2d63 843d 3c7f fbbc 63e3 95bd
000002c0: 5e99 e9bb 58d8 50bc debb 4f3c 6b11 183c
000002d0: adfa 6d3c 175e febb bffa 063d 7e19 103d
000002e0: 3cbb 8dba d69a 37bc 1b03 8e3d 4771 6f3c
000002f0: 3a1b 303d 6bca cebc 43b6 5c3a c417 39bb
00000300: 164c a5bc 930e b03c 2156 003d ff60 15bd
00000310: 2b5f c0bc 47ad b5bc 2904 18bd fc70 8a3c
00000320: 8748 ab3b a9dc 5b3c 05a4 0ebd 596d 643b
00000330: 7709 b93c b478 b9ba e01a 51bd e6dc 20bc
00000340: cb1e 50bb 34e2 78bc b1d1 3e3c e8ee 7d3d
00000350: 7f83 bcbb f3fc 88bc 77e1 ee3b 4eca 8fba
00000360: df09 13bd eab0 c73c 54dd 64bc f7dd 2f3c
00000370: ab93 0739 96e1 c9bb f93d 5a3d ef13 79bd
00000380: 5282 83bc c35f aa3c 67b7 8abc 1c1a 11bc
00000390: e607 d73c 0524 2bbd a15f 96bc 3b4b c4bc
000003a0: 3a3f 373c c932 d7bc d7f0 a3bc 7248 b4ba
000003b0: 183d 9d3c 19fc 6abc b5bc 1f3b 828e a23c
000003c0: cae8 bebc 8766 3dbc 481d a63a cc10 cb3b
000003d0: e3db 583c c455 7b3d 3f02 7e3d a03a 803c
000003e0: e9e8 9ab9 6b22 6bbc 3e85 7f3b e477 c03a
000003f0: fba9 bebc 83e9 493c 710d bbbc c330 b5bc

transformer.wte.bias f4 [48]
-0.00025056192 -0.0065247375 0.0005164161 0.008881261 0.0070299227 -0.0013921685 0.0053432444 0.006011226
0.0014423168 0.00030490456 -0.005318606 0.00616208 -0.0043426408 0.0054671788 0.0015951105 -0.0027689037
-0.006811604 -0.0061774 -0.0020012069 0.005994835 -0.002694481 0.0012569543 -0.0038361398 0.00039557283
0.005351468 -0.0010460294 -0.009329442 0.00022898264 0.0035266124 -0.0058341026 -0.00493777 -0.0040179472
-0.0044393027 -0.0035858182 -0.007411418 -0.0030111512 0.006736976 0.005775653 -0.003318788 0.0064632865
0.006961979 0.0059141642 -0.0030460765 0.004078059 -0.0013326032 -0.0010986534 0.0035675305 0.0020314485
00000000: da5d 83b9 77cd d5bb 1960 073a b582 113c
00000010: 445b e63b 6c79 b6ba 6216 af3b d2f9 c43b
00000020: 1f0c bd3a 99db 9f39 b347 aebb 46eb c93b
00000030: b64c 8ebb 0526 b33b 0713 d13a 7f76 35bb
00000040: e033 dfbb c96b cabb ae26 03bb 5270 c43b
00000050: e495 30bb 63c0 a43a bf67 7bbb e364 cf39
00000060: 5e5b af3b ec1a 89ba 84da 18bc 0f1b 7039
00000070: bd1e 673b 002c bfbb 04cd a1bb fca8 83bb
00000080: 9277 91bb 0c00 6bbb 7bdb f2bb bc56 45bb
00000090: dac1 dc3b b041 bd3b 0680 59bb fac9 d33b
000000a0: 5021 e43b 9bcb c13b afa0 47bb 3da1 853b
000000b0: beaa aeba b100 90ba 3bcd 693b 0d22 053b

transformer.wpe.weight f4 [11, 48]
-0.0013882447 0.0029785654 -0.002100051 0.0043455805 0.0042151944 -0.0059601446 0.014465056 0.02627102
0.015811235 -0.04857788 0.0045358394 0.017338574 -0.035572305 0.008393904 -0.018433146 -0.024127092
-0.030471917 -0.0060343775 -0.0078755515 0.004926778 -0.0005949345 -0.040444594 -0.02301295 0.030786939
-0.012076262 -0.011217233 -0.0010157069 -0.004377542 -0.0036104172 0.008310001 0.00159787 -0.02263363
-0.0023147787 -0.020073684 -0.006981049 -0.01213717 0.012616723 -0.008562926 0.0075991773 -0.008202852
-0.010984647 -0.03913152 0.010017912 -0.0009426264 -0.0137537 -0.013642744 0.02445799 -0.022711836
-0.010291544 -0.027461078 -0.040490314 0.010289077 0.014082388 -0.0138602145 0.014571018 0.039873175
0.013499306 0.028774373 0.00508308 -0.014047806 0.021913975 -0.012315217 0.011000286 0.0118205855
0.010224426 -0.021716224 -0.016874498 -0.0056457752 0.02096566 0.018351242 -0.009533674 0.019133814
-0.00014585585 0.025733484 0.0017760098 0.014084491 0.0027688993 -0.034317136 -0.007756532 0.011701866
0.030748755 -0.021828955 0.01633865 0.004616711 0.033361405 0.0030107896 0.046888523 0.018753013
-0.00078079145 0.0051767165 0.031125013 0.00782574 0.030648502 -0.010656033 0.018706102 -0.014756434
-0.010104052 0.02446944 0.0072226706 0.022299564 -0.027587328 0.016548181 0.011825576 0.007934819
-0.014521724 -0.027910713 0.0016041572 0.012276986 0.00036836174 0.026735691 -0.014850518 -0.0023764034
-0.00498148 -0.00808145 -0.010729326 -0.010016086 0.0031863493 0.0028750594 -0.0038492738 -0.010018175
0.01694262 0.0085715875 -0.0019735207 0.014942228 -0.0024001142 -0.016930176 0.010297335 -0.021962753
0.030210827 0.010033594 -0.010454856 -0.031396452 0.04035968 -0.007361879 -0.008770054 -0.024275098
0.017529411 0.0009359508 0.024280904 -0.0044176397 0.017248074 0.025687948 0.004801001 -0.007873283
0.018393638 -0.0034243017 -0.015929041 0.0053594373 -0.011688688 0.010536743 -7.021344e-05 -0.008884643
-0.017224073 0.01678568 -0.018302498 0.02741114 0.01522708 0.013688235 0.0016893935 -0.0011641379
0.00959867 -0.019578079 -0.002831042 0.028229997 0.01694672 0.0035340285 0.042484995 -0.009415906
0.019801877 -0.011918835 -0.0064906287 -0.0075816642 -0.010077946 0.019033015 -0.012000649 0.0060182204
-0.005311255 -0.017735507 -0.0073663997 -0.034075394 0.032934673 -0.015219082 -0.0069979755 0.01041169
-0.000550137 -0.016801743 -0.0300015 0.0033414476 0.007200716 0.006496671 0.026691122 -0.037474256
-0.03844492 -0.006663066 0.010275672 -0.0050272006 -0.011693138 -0.024255695 0.006046173 0.01974144
-0.018389575 0.021338644 -0.016881458 0.029622005 -0.028190428 -0.00042453816 -0.008272021 -0.0062749363
0.0040699057 -0.008833361 -0.011894958 -0.0073279054 -0.013320027 -0.0043380572 0.016149914 -0.004034934
0.005480106 0.01040066 -0.02001453 0.0054813693 0.009994254 -0.025802605 -0.0041272994 0.0030520293
0.0029270735 0.015442961 -0.009092474 -0.032026466 -0.014889357 0.007193124 -0.022642272 0.0043005235
-0.0010821226 -0.016450906 7.544068e-05 0.014026563 -0.013629843 0.0014482613 -0.026191479 0.0038347726
0.010408494 0.001959943 -0.006739007 0.004269403 0.015525442 0.00867149 -0.034011956 0.013665508
-0.016747497 0.02100203 -0.012873821 -0.02209076 -0.023619998 0.012542301 -0.009537704 -0.032111287
00000000: c3f5 b5ba 0934 433b 02a1 09bb 5f65 8e3b
00000010: 9d1f 8a3b 514d c3bb d8fe 6c3c 5236 d73c
00000020: 9086 813c 99f9 46bd 61a1 943b a009 8e3c
00000030: 44b4 11bd 9686 093c 1c01 97bc 2ea6 c5bc
00000040: 3ea0 f9bc 07bc c5bb 7508 01bc cf70 a13b
00000050: 61f5 1bba 3ba9 25bd a785 bcbc e434 fc3c
00000060: 84db 45bc 7cc8 37bc 7821 85ba 7c71 8fbb
00000070: c09c 6cbb ac26 083c 9f6f d13a 2a6a b9bc
00000080: 8bb3 17bb 9171 a4bc 49c1 e4bb fbda 46bc
00000090: 5fb6 4e3c 844b 0cbc 8502 f93b 4165 06bc
000000a0: f3f8 33bc 5f48 20bd 2b22 243c 961a 77ba
000000b0: 3357 61bc d185 5fbc 1f5c c83c 2c0e babc
000000c0: dd9d 28bc 0ef6 e0bc 2cd9 25bd 8493 283c
000000d0: d1b9 663c f415 63bc 47bb 6e3c 0e52 233d
000000e0: 312c 5d3c 3cb8 eb3c f78f a63b c528 66bc
000000f0: f084 b33c c4c5 49bc 8b3a 343c 21ab 413c
00000100: 5a84 273c 39e6 b1bc 633c 8abc 3200 b9bb
00000110: 2dc0 ab3c 5855 963c 2133 1cbc 84be 9c3c
00000120: e2f0 18b9 07cf d23c 00c9 e83a a3c2 663c
00000130: 6c76 353b 2090 0cbd 822a febb 2fb9 3f3c
00000140: d0e4 fb3c a3d2 b2bc a2d8 853c c747 973b
00000150: f8a5 083d ab50 453b 2e0e 403d eb9f 993c
00000160: 07ae 4cba 72a1 a93b e2f9 fe3c 8837 003c
00000170: 9112 fb3c a496 2ebc 8a3d 993c f8c4 71bc
00000180: 778b 25bc 2374 c83c 27ac ec3b 93ad b63c
00000190: d2fe e1bc 0d90 873c 10c0 413c 0b01 023c
000001a0: 86ec 6dbc 02a5 e4bc 9542 d23a 6925 493c
000001b0: ad20 c139 cf04 db3c 964f 73bc 6fbd 1bbb
000001c0: af3b a3bb 0f68 04bc 0eca 2fbc 821a 24bc
000001d0: 12d2 503b 7e6b 3c3b 1944 7cbb 4523 24bc
000001e0: 40cb 8a3c d86f 0c3c 2f56 01bb 3fd0 743c
000001f0: 3c4b 1dbb 27b1 8abc 27b6 283c 3beb b3bc
00000200: b27c f73c f263 243c d84a 2bbc 9199 00bd
00000210: 3150 253d eb3b f1bb 46b0 0fbc 92dc c6bc
00000220: d799 8f3c 985a 753a bfe8 c63c d9c1 90bb
00000230: d54b 8d3c 886f d23c b751 9d3b f1fe 00bc
00000240: 41ae 963c 406a 60bb 9f7d 82bc 389e af3b
00000250: e981 3fbc 4ea2 2c3c 8e3f 93b8 e590 11bc
00000260: 8019 8dbc 1f82 893c 1fef 95bc 548d e03c
00000270: 017b 793c 9e44 603c a46e dd3a fc95 98ba
00000280: bd43 1d3c 3562 a0bc 0189 39bb 9842 e73c
00000290: d9d3 8a3c 299b 673b bf04 2e3d 2c45 1abc
000002a0: 8c37 a23c 3847 43bc 57af d4bb 9c6f f8bb
000002b0: f81d 25bc 20eb 9b3c 5f9e 44bc 7e34 c53b
000002c0: 090a aebb 0e4a 91bc d761 f1bb a492 0bbd
000002d0: 82e6 063d 7559 79bc 464f e5bb cb95 2a3c
000002e0: 1237 10ba cfa3 89bc b5c5 f5bc 30fc 5a3b
000002f0: fcf3 eb3b 07e2 d43b 57a7 da3c 9b7e 19bd
00000300: 6c78 1dbd d955 dabb 4b5b 283c 37bb a4bb
00000310: 9394 3fbc e1b3 c6bc fa1e c63b cdb8 a13c
00000320: bca5 96bc 61ce ae3c fc4a 8abc d9a9 f23c
00000330: 9def e6bc 8c94 deb9 5f87 07bc fb9d cdbb
00000340: d85c 853b cdb9 10bc 12e3 42bc ed1e f0bb
00000350: 3e3c 5abc 4326 8ebb d34c 843c 7b37 84bb
00000360: 7692 b33b 8867 2a3c 83f5 a3bc 0f9d b33b
00000370: f1be 233c fc5f d3bc 4c3e 87bb 8e04 483b
00000380: 25d4 3f3b 7904 7d3c 9af8 14bc 2f2e 03bd
00000390: 7df2 73bc 4cb4 eb3b 497c b9bc 68eb 8c3b
000003a0: 02d6 8dba 0dc4 86bc e835 9e38 abcf 653c
000003b0: b44f 5fbc 96d3 bd3a 838f d6bc cf50 7b3b
000003c0: 6388 2a3c 6372 003b e3d2 dcbb 59e6 8b3b
000003d0: 6c5e 7e3c dd12 0e3c 1f50 0bbd 4be5 5f3c
000003e0: 0c32 89bc 730c ac3c b8ec 52bc aef7 b4bc
000003f0: ba7e c1bc 397e 4d3c 0844 1cbc 2087 03bd

transformer.h.0.ln_1.weight f4 [48]
0.99676687 1.0031247 1.0169245 1.0000447 1.0045496 0.9919155 0.9883729 0.9940312
0.99923325 0.9956664 1.0036992 0.9904271 1.0035775 1.004453 1.0067706 0.98487115
0.9980142 1.0019644 1.0061346 0.9988463 0.997314 0.9848122 1.0071856 0.9948422
1.0046947 1.0055113 1.0077252 0.9938207 0.99968547 0.99359936 0.9979075 0.99421376
0.99744755 0.9961113 0.9987921 1.0058908 1.0069361 1.00362 1.0003442 1.0190027
1.0158648 0.9901648 1.003643 0.9892583 0.9809229 0.98497343 0.98918545 0.9985528
00000000: 1d2c 7f3f 6466 803f 952a 823f 7701 803f
00000010: 1595 803f 2dee 7d3f 0206 7d3f d478 7e3f
00000020: c0cd 7f3f fee3 7e3f 3779 803f a18c 7d3f
00000030: 3a75 803f ea91 803f dcdd 803f 8420 7c3f
00000040: dc7d 7f3f 5f40 803f 05c9 803f 64b4 7f3f
00000050: f84f 7f3f a71c 7c3f 75eb 803f faad 7e3f
00000060: d699 803f 98b4 803f 24fd 803f 096b 7e3f
00000070: 63eb 7f3f 875c 7e3f de76 7f3f cb84 7e3f
00000080: b958 7f3f 2601 7f3f d7b0 7f3f 08c1 803f
00000090: 48e3 803f 9f76 803f 470b 803f ae6e 823f
000000a0: dc07 823f 717b 7d3f 6077 803f 0840 7d3f
000000b0: c31d 7b3f 3827 7c3f 423b 7d3f 28a1 7f3f

transformer.h.0.ln_1.bias f4 [48]
-0.01255673 -0.010838603 0.0023128982 0.012089711 0.007877044 0.004719749 -0.012368388 -0.008280277
0.008176913 0.011729343 -0.0066696475 0.015993224 0.0037867893 -0.0011996271 -0.0036358752 0.012527101
-0.010690554 0.0017755079 -0.002092556 0.0056368588 0.0031517984 -0.0039885156 0.008149942 -0.016512167
-0.00021632339 0.0010057839 -0.0038018986 -0.000865167 -0.0032429867 -0.0044072787 0.015071557 -0.009484821
-0.0006140242 -0.012649809 -0.007902245 -0.0040978706 4.162197e-05 0.005533759 -0.0012591374 -0.0009769984
0.0040540462 0.0019266 0.00011887193 0.0060525765 -0.004644226 -0.004400657 -0.009467523 -0.0054676174
00000000: beba 4dbc 6594 31bc fe93 173b ec13 463c
00000010: b80e 013c 20a8 9a3b c7a4 4abc 00aa 07bc
00000020: 75f8 053c 6e2c 403c 0f8d dabb 3904 833c
00000030: c82b 783b ce3c 9dba dd47 6ebb 783e 4d3c
00000040: 6f27 2fbc 29b8 e83a 4423 09bb 66b5 b83b
00000050: 678e 4e3b 18b2 82bb 5687 053c 8644 87bc
00000060: ded4 62b9 82d4 833a 4629 79bb 60cc 62ba
00000070: 4a88 54bb ef6a 90bb b1ee 763c 3966 1bbc
00000080: 77f6 20ba 2541 4fbc 6b78 01bc 6e47 86bb
00000090: 4093 2e38 8954 b53b a409 a5ba a00e 80ba
000000a0: ced7 843b f885 fc3a e24a f938 b154 c63b
000000b0: 972e 98bb 6333 90bb ab1d 1bbc b329 b3bb

transformer.h.0.attn.bias f4 [1, 1, 11, 11]
1.0 0.0 0.0 0.0 0.0 0.0 0.0 0.0
0.0 0.0 0.0 1.0 1.0 0.0 0.0 0.0
0.0 0.0 0.0 0.0 0.0 0.0 1.0 1.0
1.0 0.0 0.0 0.0 0.0 0.0 0.0 0.0
0.0 1.0 1.0 1.0 1.0 0.0 0.0 0.0
0.0 0.0 0.0 0.0 1.0 1.0 1.0 1.0
1.0 0.0 0.0 0.0 0.0 0.0 0.0 1.0
1.0 1.0 1.0 1.0 1.0 0.0 0.0 0.0
0.0 0.0 1.0 1.0 1.0 1.0 1.0 1.0
1.0 0.0 0.0 0.0 0.0 1.0 1.0 1.0
1.0 1.0 1.0 1.0 1.0 0.0 0.0 0.0
1.0 1.0 1.0 1.0 1.0 1.0 1.0 1.0
1.0 0.0 0.0 1.0 1.0 1.0 1.0 1.0
1.0 1.0 1.0 1.0 1.0 0.0 1.0 1.0
1.0 1.0 1.0 1.0 1.0 1.0 1.0 1.0
1.0
00000000: 0000 803f 0000 0000 0000 0000 0000 0000
00000010: 0000 0000 0000 0000 0000 0000 0000 0000
00000020: 0000 0000 0000 0000 0000 0000 0000 803f
00000030: 0000 803f 0000 0000 0000 0000 0000 0000
00000040: 0000 0000 0000 0000 0000 0000 0000 0000
00000050: 0000 0000 0000 0000 0000 803f 0000 803f
00000060: 0000 803f 0000 0000 0000 0000 0000 0000
00000070: 0000 0000 0000 0000 0000 0000 0000 0000
00000080: 0000 0000 0000 803f 0000 803f 0000 803f
00000090: 0000 803f 0000 0000 0000 0000 0000 0000
000000a0: 0000 0000 0000 0000 0000 0000 0000 0000
000000b0: 0000 803f 0000 803f 0000 803f 0000 803f
000000c0: 0000 803f 0000 0000 0000 0000 0000 0000
000000d0: 0000 0000 0000 0000 0000 0000 0000 803f
000000e0: 0000 803f 0000 803f 0000 803f 0000 803f
000000f0: 0000 803f 0000 0000 0000 0000 0000 0000
00000100: 0000 0000 0000 0000 0000 803f 0000 803f
00000110: 0000 803f 0000 803f 0000 803f 0000 803f
00000120: 0000 803f 0000 0000 0000 0000 0000 0000
00000130: 0000 0000 0000 803f 0000 803f 0000 803f
00000140: 0000 803f 0000 803f 0000 803f 0000 803f
00000150: 0000 803f 0000 0000 0000 0000 0000 0000
00000160: 0000 803f 0000 803f 0000 803f 0000 803f
00000170: 0000 803f 0000 803f 0000 803f 0000 803f
00000180: 0000 803f 0000 0000 0000 0000 0000 803f
00000190: 0000 803f 0000 803f 0000 803f 0000 803f
000001a0: 0000 803f 0000 803f 0000 803f 0000 803f
000001b0: 0000 803f 0000 0000 0000 803f 0000 803f
000001c0: 0000 803f 0000 803f 0000 803f 0000 803f
000001d0: 0000 803f 0000 803f 0000 803f 0000 803f
000001e0: 0000 803f

transformer.h.0.attn.c_attn.weight f4 [144, 48]
0.01094607 -0.07453574 -0.061680924 0.012536751 0.035968617 0.10350839 0.019598654 0.01340083
0.065259956 0.06790148 -0.067578636 -0.03229275 -0.05667856 -0.04291958 -0.05810902 -0.040079232
0.08961071 0.018158121 0.024893347 0.0383249 -0.013987309 -0.047214378 0.034821317 0.01140369
0.016545076 0.09189422 -0.08021641 -0.03775777 -0.0136948945 -0.03910967 0.014937536 0.041068364
0.034792062 0.0028070686 0.031010075 -0.11212211 0.0011875237 -0.06675933 0.025247449 0.053999707
-0.058149222 0.057471626 -0.00035330764 0.0028659673 0.017082348 0.0588672 -0.058214437 0.047459688
-0.0063851085 -0.023752369 -0.026018621 0.00596158 0.077674694 0.059467614 0.010977596 0.0040663625
0.042094477 0.043731663 -0.035500597 0.004828235 -0.034384638 0.020136708 -0.09929144 -0.017055733
0.018337632 0.051488113 -0.024793373 0.024686638 0.022058386 -0.027226508 0.016735893 -0.026490692
0.015289249 0.058109306 -0.11541803 0.033868223 -0.00588814 -0.049876414 -0.0033693549 0.057164814
0.053731095 -0.005595469 0.05447759 -0.06810291 0.03931555 0.003623384 -0.013227266 0.07546667
-0.015458067 0.03982908 0.009217259 -0.0037521436 -0.008178151 -0.007282415 -0.07414167 0.06298434
0.020279713 0.054106742 0.027284382 -0.04982131 0.059620734 -0.009280765 0.070908375 0.008183848
-0.11023574 -0.0007714271 -0.016083559 -0.0066370815 -0.070685595 0.016316075 -0.005949744 0.006839571
-0.08982772 -0.0108774705 -0.09639239 0.02887108 0.025492456 0.08445784 0.03824847 0.00024361024
-0.034097098 0.035252158 0.01816897 0.03928179 0.0864457 0.05495538 -0.038916588 -0.11828729
-0.009219049 -0.06500539 0.048470702 -0.060355328 0.034947116 -0.036158454 0.11654916 0.057383277
0.08972143 -0.009352767 0.016735688 -0.07552205 0.07986229 -0.054937962 -0.05797324 0.015260239
-0.03916562 0.019435609 -0.010480953 0.021352379 0.007924064 -0.007334101 -0.046060763 -0.02133091
-0.023207814 -0.08034525 0.03315317 0.050973292 0.05083262 -0.019168705 0.046613693 0.07972051
-0.035365537 -0.030480385 0.025255043 0.024425928 0.035050604 -0.02798147 -0.025366835 -0.015549245
0.034042448 -0.05460702 0.035155606 0.03756116 0.01252735 0.003402876 0.014754069 -0.04429931
0.061647862 -0.040504795 -0.00342477 0.05322063 -0.022180717 0.08691507 0.0012744545 0.013018792
-0.014514725 -0.039172065 0.059252173 0.044158522 0.03206567 -0.028631099 -0.00023474393 -0.057361834
0.034045685 -0.05682299 -0.08154895 0.013725108 0.045369063 0.1073179 0.062366635 -0.0556814
0.02504173 0.025297005 -0.022676766 0.016387802 -0.05245792 -0.013194072 -0.06940047 -0.039654985
0.06896986 0.0521039 0.0015324114 0.029271845 -0.0015157951 -0.055888608 0.045535788 -0.0016082466
-0.023990208 0.07427822 -0.1293224 -0.01678095 -0.017311037 -0.013838469 -0.0023308618 0.005704029
0.05972232 -0.028984632 0.029725615 -0.10942042 0.026021397 -0.08661653 0.010142384 0.07441347
-0.05840985 0.0517919 -0.005399175 -0.032588243 0.025211021 0.08315667 -0.05759004 0.0633018
-0.0012028959 0.045792785 0.08078096 0.009072626 0.024375284 -0.09014639 -0.0014077809 -0.013843523
-0.10724111 -0.041478753 0.023189481 -0.04324998 0.008264353 0.03673299 0.04013532 -0.023792902
00000000: 2557 333c 32a6 98bd 23a5 7cbd f266 4d3c
00000010: d453 133d 35fc d33d 5b8d a03c 288f 5b3c
00000020: 03a7 853d ee0f 8b3d ab66 8abd 6745 04bd
00000030: c727 68bd 71cc 2fbd b903 6ebd 1f2a 24bd
00000040: d285 b73d 57c0 943c 22ed cb3c 92fa 1c3d
00000050: 072b 65bc dd63 41bd cca0 0e3d 8bd6 3a3c
00000060: 8a89 873c 0933 bc3d 8048 a4bd e4a7 1abd
00000070: 8d60 60bc 7631 20bd 91bc 743c 4d37 283d
00000080: 1f82 0e3d ccf6 373b d708 fe3c 47a0 e5bd
00000090: afa6 9b3a 1eb9 88bd bdd3 ce3c cc2e 5d3d
000000a0: e12d 6ebd 5e67 6b3d 263c b9b9 f4d2 3b3b
000000b0: 48f0 8b3c bc1e 713d 4372 6ebd 1765 423d
000000c0: 2c3a d1bb 5494 c2bc 0125 d5bc 5c59 c33b
000000d0: e913 9f3d 5094 733d 60db 333c 1f3f 853b
000000e0: 426b 2c3d f91f 333d 1369 11bd 2c36 9e3b
000000f0: e8d6 0cbd bdf5 a43c 4f59 cbbd 77b8 8bbc
00000100: cd38 963c 33e5 523d 791b cbbc a23b ca3c
00000110: cab3 b43c 200a dfbc b619 893c 0203 d9bc
00000120: c27f 7a3c 0604 6e3d 4a60 ecbd 68b9 0a3d
00000130: 4cf1 c0bb 364b 4cbd 65d0 5cbb a725 6a3d
00000140: 2315 5c3d 325a b7bb e523 5f3d 8a79 8bbd
00000150: 5809 213d 4c76 6d3b 2db7 58bc 458e 9a3d
00000160: d543 7dbc d123 233d fc03 173c 86e6 75bb
00000170: a7fd 05bc 53a1 eebb 96d7 97bd effd 803d
00000180: a421 a63c 089f 5d3d 7f83 df3c 6e11 4cbd
00000190: df34 743d 5a0e 18bc 6938 913d 8c15 063c
000001a0: 47c3 e1bd 9939 4aba abc1 83bc e07b d9bb
000001b0: 9cc3 90bd 4aa9 853c 12f6 c2bb 7b1e e03b
000001c0: 98f7 b7bd 6b37 32bc 6069 c5bd 0b83 ec3c
000001d0: 8ed5 d03c 3bf8 ac3d 6daa 1c3d a071 7f39
000001e0: 66a9 0bbd 9164 103d 17d7 943c f1e5 203d
000001f0: 710a b13d e418 613d 0067 1fbd 9b40 f2bd
00000200: 7e0b 17bc 8c21 85bd 3789 463d 2637 77bd
00000210: b524 0f3d e31a 14bd 53b1 ee3d ba0a 6b3d
00000220: debf b73d 593c 19bc 4819 893c 4eab 9abd
00000230: d78e a33d a106 61bd 5975 6dbd 1506 7a3c
00000240: 216c 20bd 6d37 9f3c 4eb8 2bbc 2feb ae3c
00000250: efd3 013c e652 f0bb 36aa 3cbd 29be aebc
00000260: 501e bebc 0d8c a4bd 9ecb 073d 5fc9 503d
00000270: de35 503d b007 9dbc 00ee 3e3d 8244 a33d
00000280: 74db 10bd 00b2 f9bc aae3 ce3c e218 c83c
00000290: 3991 0f3d 6539 e5bc 1cce cfbc 43c2 7ebc
000002a0: 1870 0b3d 9cab 5fbd 53ff 0f3d bbd9 193d
000002b0: 843f 4d3c c902 5f3b 0dbb 713c 3173 35bd
000002c0: 7882 7c3d 5be8 25bd 1b72 60bb e0fd 593d
000002d0: 56b4 b5bc 8700 b23d 990b a73a c54c 553c
000002e0: 2bcf 6dbc e372 20bd 68b2 723d 91df 343d
000002f0: 4b57 033d c48b eabc 9825 76b9 3ef4 6abd
00000300: 7d73 0b3d 39bf 68bd 2303 a7bd 46df 603c
00000310: e9d4 393d 7dc9 db3d 2874 7f3d 2e12 64bd
00000320: 5024 cd3c aa3b cf3c a0c4 b9bc b63f 863c
00000330: 1ede 56bd f32b 58bc d521 8ebd 446d 22bd
00000340: 1240 8d3d e66a 553d 32db c83a 82cb ef3c
00000350: a5ad c6ba 74eb 64bd bc83 3a3d cdcb d2ba
00000360: 1d87 c4bc 2e1f 983d 176d 04be 3478 89bc
00000370: e0cf 8dbc bfba 62bc 5fc1 18bb dde8 ba3b
00000380: 649f 743d 2e71 edbc 2283 f33c d017 e0bd
00000390: d32a d53c 0264 b1bd 3e2c 263c 1766 983d
000003a0: 2b3f 6fbd be23 543d 90eb b0bb 407b 05bd
000003b0: 5887 ce3c 0b4e aa3d 89e3 6bbd 60a4 813d
000003c0: 7daa 9dba 3791 3b3d 7d70 a53d 5aa5 143c
000003d0: adae c73c ac9e b8bd 4a85 b8ba f2cf 62bc
000003e0: 3aa1 dbbd a0e5 29bd def7 bd3c e426 31bd
000003f0: 3567 073c 5575 163d ef64 243d 55e9 c2bc

transformer.h.0.attn.c_attn.bias f4 [144]
0.024278622 0.009426214 0.05181427 -0.044867013 0.040110584 0.0033636652 -0.0075381016 -0.03396224
-0.038095925 0.003947412 0.00025858602 0.028616773 0.009699864 -0.08271269 -0.015076467 0.0032601233
0.0036438557 0.013583797 0.0008464091 -0.0048182015 0.02126437 0.015802821 0.0090612285 0.0057213344
-0.0054185474 0.0138814915 0.024435995 0.014108146 0.0039631147 0.0057125348 -0.0017722365 -0.0039545777
0.02315423 0.0011365084 -0.032452233 -0.016276773 0.029618572 -0.024771951 -0.054847065 -0.005474019
-0.011316315 -0.07032713 -0.043716278 -0.01507118 0.049248617 0.051116724 -0.017608747 0.03368676
-7.381285e-07 -1.925764e-07 2.815329e-07 4.842248e-07 -6.3388853e-07 4.4821888e-07 5.1193403e-08 -3.4227668e-07
6.3547384e-07 -2.4081376e-07 4.6256363e-07 -4.7807566e-07 -3.7984645e-07 6.7099273e-07 5.4566544e-07 -5.294899e-07
3.0596107e-07 5.7128716e-07 3.0006976e-08 -1.2888742e-06 1.0656164e-06 -5.226493e-07 2.5341245e-07 8.2052657e-07
-8.8076524e-07 9.564429e-07 1.3308373e-06 5.3661995e-07 -1.06224654e-07 1.0541015e-06 7.883678e-07 -3.98322e-07
4.2111605e-08 -1.0272989e-07 -2.228302e-07 3.508734e-08 3.8407904e-07 -4.4477892e-07 -2.5673822e-07 2.0234057e-07
1.9898205e-07 -1.0759667e-07 3.3025407e-07 -2.534715e-07 7.59934e-07 6.4156005e-08 -3.4347804e-07 -1.9264519e-07
-0.0027698705 -0.0011171541 -0.0020170303 0.0022774192 -0.0047570835 0.0020071475 0.004971548 -0.0019083685
-0.0052628596 0.009323133 -0.0044004736 -0.00060502725 -0.0034572796 -0.0019475763 -0.009688243 -0.0029321928
0.0019869835 0.008196202 0.000931217 -0.009595497 -0.006155384 0.0004327479 0.00237701 0.004897892
-0.0050043915 -0.004250795 0.00056529936 0.0005426202 -0.0021837398 -0.0016765499 -0.008290229 -0.0053280145
-0.004765071 0.013139131 -0.01269087 0.0022386415 -0.001331613 -0.0045225043 0.012366918 -0.0021051005
-0.0035176943 -0.0034133748 -0.0046851556 -0.0032068465 0.0044366983 -0.0021668763 0.0062101167 -0.00831738
00000000: f6e3 c63c 6870 1a3c 333b 543d 79c6 37bd
00000010: ff4a 243d f070 5c3b 2e02 f7bb fd1b 0bbd
00000020: 790a 1cbd 4b59 813b d492 8739 b96d ea3c
00000030: 2eec 1e3c 4565 a9bd 4903 77bc cba7 553b
00000040: c1cd 6e3b 938e 5e3c 8ee1 5d3a 01e2 9dbb
00000050: 9e32 ae3c eb74 813c 8c75 143c 087a bb3b
00000060: 128e b1bb 326f 633c ff2d c83c da25 673c
00000070: 04dd 813b 3730 bb3b 644a e8ba 6795 81bb
00000080: f1ad bd3c e5f6 943a a2ec 04bd de56 85bc
00000090: a6a2 f23c 8cee cabc 51a7 60bd 665f b3bb
000000a0: 1168 39bc ac07 90bd d70f 33bd 1ced 76bc
000000b0: ebb8 493d c55f 513d 3840 90bc 21fb 093d
000000c0: ce23 46b5 ffc6 4eb4 9625 9734 adfb 0135
000000d0: 7d28 2ab5 bca2 f034 bedf 5b33 26c2 b7b4
000000e0: 6e95 2a35 3149 81b4 4356 f834 1c55 00b5
000000f0: b3ed cbb4 451e 3435 d879 1235 4522 0eb5
00000100: f842 a434 8e5a 1935 05e1 0033 61fd acb5
00000110: 4d06 8f35 304c 0cb5 be0c 8834 2842 5c35
00000120: ba6d 6cb5 215f 8035 399f b235 3e0c 1035
00000130: 9f1d e4b3 a77a 8d35 39a0 5335 f5d8 d5b4
00000140: 33de 3433 5b9c dcb3 1943 6fb4 f0b2 1633
00000150: 6c33 ce34 f3c9 eeb4 d5d5 89b4 f442 5934
00000160: c5a7 5534 e50f e7b3 c64d b134 dc14 88b4
00000170: 44fe 4b35 23c6 8933 4367 b8b4 e8d9 4eb4
00000180: b786 35bb 796d 92ba 2730 04bb c140 153b
00000190: 4fe1 9bbb 598a 033b 5ee8 a23b 3922 faba
000001a0: 1174 acbb 0ec0 183c d931 90bb b19a 1eba
000001b0: 8793 62bb d145 ffba 70bb 1ebc 082a 40bb
000001c0: 0d38 023b 5d49 063c ea1c 743a 6e36 1dbc
000001d0: 1ab3 c9bb 71e2 e239 9cc7 1b3b 7f7e a03b
000001e0: e1fb a3bb 414a 8bbb 9930 143a a03e 0e3a
000001f0: 131d 0fbb aebf dbba bed3 07bc a096 aebb
00000200: 5024 9cbb 8245 573c 5eed 4fbc 2cb6 123b
00000210: 8589 aeba 8431 94bb 9d9e 4a3c baf5 09bb
00000220: 1e89 66bb edb2 5fbb ef85 99bb f529 52bb
00000230: b961 913b 2702 0ebb 3c7e cb3b 9f45 08bc

transformer.h.0.attn.c_proj.weight f4 [48, 48]
-0.008844636 0.008432094 0.016673822 0.014720093 0.01875448 0.0064763776 -0.012991127 -0.0039246455
-0.014074274 -0.010340409 0.006175216 0.013671342 0.00019283323 0.0074588466 -0.0053583793 0.0023207336
0.001673993 -0.0054964507 -0.001245709 0.027725844 0.009123536 0.014227685 0.011364029 0.007961361
0.00037172748 -0.00091701007 0.0011363323 0.020184213 -0.017408922 0.0072149625 -0.0014993619 0.0129510565
-0.014711715 0.006257746 0.0048412853 -0.009238078 0.010610571 0.00037499252 -0.0056838267 0.0012268685
0.023807842 -0.019168846 -0.00014895452 -0.007342303 -0.0043573324 -0.005522244 0.013359832 0.0034357235
-0.007871586 0.0050875405 -0.011863294 -0.0072228597 -0.014936962 -0.017292295 0.014145269 -0.010826484
0.00919973 0.0027393561 0.011571771 -0.01639034 -0.006338711 -0.008464387 0.007663613 0.011418539
-0.0059251916 0.008295859 -0.008577939 -0.019348534 -0.020354254 -0.004458758 -0.016401539 0.0025503056
0.001443134 0.007701878 0.00652692 0.022001214 -0.0017699405 -0.0005273024 0.00021299376 0.0044771745
0.018946419 -0.0035039159 -0.00828263 -0.0078697605 -0.01943054 -0.013271987 0.0020513656 0.0013644629
-0.0064296913 -0.014633108 0.024211962 0.010197506 0.009235935 0.02812519 -0.010161945 -0.0026742984
0.009932791 -0.007878002 -0.011209045 0.0020376875 0.007963862 0.005661242 -0.0035904485 -0.019014908
-0.023998057 0.010276164 0.0034168982 0.0030650997 -0.017570885 0.0030717559 0.0008286719 0.011306674
0.0026529855 0.0016296939 0.007173993 -0.02294825 -0.017679468 -0.0012221007 0.015475787 0.015819298
-0.000867673 -0.019747796 4.1973763e-05 -0.009368785 0.013928299 0.010293868 -0.0034906077 -0.0066653686
0.008102075 -0.01651239 -0.013034426 0.0033028852 0.002776119 0.005119203 -0.019318158 -0.016103664
0.013069117 0.008295799 -0.0087654 -0.004800233 -0.003594473 -0.009215795 0.002185855 -0.007236687
0.008685019 0.01380003 0.013351168 -0.0057848324 0.010193658 0.015214178 0.0072929366 0.014756136
0.0066370256 -0.001165886 0.014876078 -0.018555291 -0.010753028 -0.003943501 0.008981526 0.004731254
-0.01379478 -0.0006622709 -0.00021567942 -0.00091758295 0.013426973 0.0017516208 -0.0037499294 -0.0032197295
0.015981315 0.0022488553 -0.002342306 -0.017346432 -0.021759959 -0.018843604 -0.0095444815 0.01299411
-0.0039333445 -0.012882022 -0.0030434371 0.00306656 0.0023257348 0.011819683 0.009756635 0.008894409
0.0010126475 0.006488334 0.012145151 0.021268792 -0.018953258 0.012865699 0.008343619 0.0059473915
0.014559484 0.006465296 0.0022583937 0.010596477 0.005602908 0.004133009 -0.0054490003 -0.010944726
-0.022886587 -0.013206095 -0.0055684554 -0.002076007 -0.007116781 0.004241957 0.0038965407 -0.000811597
-0.0079411995 -0.0029874316 -0.002113541 -0.009982772 -0.011757292 0.022362469 0.00040143673 0.0021648472
-0.0011951616 -0.0021224287 0.0009891016 -0.0033252037 -0.008213141 0.00044878747 -0.007419567 0.0037677013
-0.013135953 -0.0024261829 -0.012744967 0.011683981 0.00082816795 -0.0030191145 -0.008559162 -0.006414724
0.013353587 -0.0071450993 -0.0011372057 0.0039110873 -0.002446205 -0.0032648272 0.0021584323 -0.007282459
-0.002178371 -0.022317383 -0.004237605 -0.019128097 -0.011712845 0.008584808 0.009336424 -0.0047991197
-0.0034102509 0.01147276 -0.009650196 0.006342803 0.006286477 0.012390474 -0.0010600796 -0.005928737
00000000: 18e9 10bc c426 0a3c 8a97 883c 8c2c 713c
00000010: ffa2 993c cb37 d43b bcd8 54bc 509a 80bb
00000020: c997 66bc d26a 29bc 7759 ca3b c4fd 5f3c
00000030: 4733 4a39 5769 f43b 5895 afbb 7317 183b
00000040: e269 db3a 921b b4bb 0f47 a3ba 4f21 e33c
00000050: e27a 153c 3c1b 693c 3130 3a3c 5e70 023c
00000060: 6be4 c239 8163 70ba fcf0 943a 5d59 a53c
00000070: 289d 8ebc 7e6b ec3b 3d86 c4ba ab30 543c
00000080: 6809 71bc c70d cd3b a5a3 9e3b 4f5b 17bc
00000090: f6d7 2d3c a59a c439 653f babb e0ce a03a
000000a0: aa08 c33c fc07 9dbc ad30 1cb9 b497 f0bb
000000b0: f4c7 8ebb f1f3 b4bb 32e3 5a3c e029 613b
000000c0: d3f7 00bc 62b5 a63b 435e 42bc bdad ecbb
000000d0: 29ba 74bc 92a8 8dbc 8fc1 673c 9161 31bc
000000e0: 77ba 163c c586 333b 8797 3d3c 0945 86bc
000000f0: f6b4 cfbb 36ae 0abc 0c1f fb3b d314 3b3c
00000100: 1c28 c2bb 5beb 073c 7c8a 0cbc d180 9ebc
00000110: f7bd a6bc c61a 92bb 855c 86bc 0723 273b
00000120: 8b27 bd3a 0960 fc3b c6df d53b e43b b43c
00000130: 59fd e7ba aa3a 0aba 1457 5f39 43b5 923b
00000140: 8535 9b3c f4a1 65bb deb3 07bc 2bf0 00bc
00000150: cc2c 9fbc c072 59bc 3470 063b c7d7 b23a
00000160: 29b0 d2bb b4bf 6fbc 2a58 c63c 7113 273c
00000170: 5252 173c cc66 e63c 497e 26bc 4843 2fbb
00000180: 25bd 223c bc12 01bc 24a6 37bc b98a 053b
00000190: dc7a 023c f181 b93b bb4d 6bbb 27c5 9bbc
000001a0: 9397 c4bc 5b5d 283c 0aee 5f3b d7df 483b
000001b0: d1f0 8fbc 834f 493b 3b3b 593a a13f 393c
000001c0: b6dd 2d3b 749b d53a d113 eb3b f8fd bbbc
000001d0: 88d4 90bc e52e a0ba 288e 7d3c 7997 813c
000001e0: 8d74 63ba 21c6 a1bc fc0c 3038 887f 19bc
000001f0: 8533 643c 9da7 283c aec2 64bb 2a69 dabb
00000200: 91be 043c fe44 87bc 588e 55bc 3875 583b
00000210: 8cef 353b fdbe a73b 1d41 9ebc d5eb 83bc
00000220: da1f 563c 1aeb 073c c19c 0fbc 464b 9dbb
00000230: 4091 6bbb d9fd 16bc 9040 0f3b bb21 edbb
00000240: 9c4b 0e3c 8519 623c dbbe 5a3c b18e bdbb
00000250: 4d03 273c e344 793c 96f9 ee3b b8c3 713c
00000260: 687b d93b a4d0 98ba cbba 733c 4401 98bc
00000270: 782d 30bc 7c38 81bb 4027 133c a308 9b3b
00000280: 8003 62bc 3f9c 2dba 0128 62b9 f389 70ba
00000290: cefc 5b3c a496 e53a 60c1 75bb 1902 53bb
000002a0: 3feb 823c 8861 133b 6081 19bb 1b1a 8ebc
000002b0: f141 b2bc e75d 9abc 7560 1cbc 3fe5 543c
000002c0: 49e3 80bb 1e0f 53bc 6774 47bb 57f8 483b
000002d0: 5b6b 183b 58a7 413c 4bda 1f3c dbb9 113c
000002e0: d0ba 843a 179c d43b 75fc 463c e43b ae3c
000002f0: dd43 9bbc a7ca 523c adb3 083c 56e2 c23b
00000300: e78a 6e3c d5da d33b 8f01 143b d99c 2d3c
00000310: 9998 b73b 316e 873b 878d b2bb 8251 33bc
00000320: a77c bbbc 615e 58bc 9777 b6bb 9e0d 08bb
00000330: e333 e9bb 1d00 8b3b 1b5d 7f3b 5ac1 54ba
00000340: ce1b 02bc c9c8 43bb 5583 0abb c88e 23bc
00000350: a8a1 40bc 7f31 b73c ed77 d239 1ce0 0d3b
00000360: f8a6 9cba 7218 0bbb bea4 813a a9eb 59bb
00000370: 6990 06bc 3c4b eb39 d71f f3bb 8aeb 763b
00000380: 2e38 57bc 9800 1fbb 44d0 50bc 2b6e 3f3c
00000390: 6919 593a 56dc 45bb ba3b 0cbc 9b32 d2bb
000003a0: 01c9 5a3c 7021 eabb 4b0e 95ba 9428 803b
000003b0: 8250 20bb b6f6 55bb 7c74 0d3b b2a1 eebb
000003c0: 00c3 0ebb f2d2 b6bc 9bdb 8abb 87b2 9cbc
000003d0: 3ce7 3fbc 4ba7 0c3c cdf7 183c ef41 9dbb
000003e0: 847e 5fbb 3ef8 3b3c db1b 1ebc 4ad7 cf3b
000003f0: cbfe cd3b 6a01 4b3c 5ef2 8aba da45 c2bb

transformer.h.0.attn.c_proj.bias f4 [48]
-0.0012397213 -0.0043903696 -0.0022866994 0.0070617953 0.006097353 -0.0019828167 0.0030436567 0.007942431
-0.0009045301 0.00026142347 -0.0056303106 0.002869929 -0.0016255418 0.0015409727 0.0040425523 -0.00075592456
-0.008528348 -0.0052178265 -0.00076856505 0.005568427 -0.0035699538 0.0020132505 -0.00454061 -0.00014206034
0.0063845934 -0.0034982297 -0.008634764 0.0029128378 0.005081017 -0.0041828523 -0.0001837764 -0.006115158
-0.006875105 -0.0010252652 -0.0070326324 -0.0017098492 0.006234427 0.0077109435 -0.0062858663 0.004732912
0.0031152274 0.006924292 -0.0028969275 0.00443011 -0.00070560875 0.0008192746 0.0020155816 0.0034688045
00000000: 257e a2ba 17dd 8fbb 73dc 15bb a266 e73b
00000010: 4ecc c73b 25f2 01bb 1678 473b f820 023c
00000020: fd1d 6dba aa0f 8939 787e b8bb 6b15 3c3b
00000030: 2210 d5ba 77fa c93a 6377 843b 3d29 46ba
00000040: 7cba 0bbc 4dfa aabb 8779 49ba 5a77 b63b
00000050: e3f5 69bb bdf0 033b 66c9 94bb 08f6 14b9
00000060: da35 d13b 8e42 65bb d378 0dbc 4fe5 3e3b
00000070: a97e a63b 4f10 89bb 1ab4 40b9 aa61 c8bb
00000080: 9048 e1bb 3162 86ba ff71 e6bb 051d e0ba
00000090: 2a4a cc3b 15ac fc3b abf9 cdbb 8b16 9b3b
000000a0: d828 4c3b 2ce5 e23b 61da 3dbb 752a 913b
000000b0: 9af8 38ba 96c4 563a d917 043b e254 633b

transformer.h.0.ln_2.weight f4 [48]
0.9946744 1.0151445 1.0021812 1.0243123 1.0221007 1.0082779 0.9954012 1.0100462
1.0204242 1.0068905 1.0062569 1.0034175 0.99889916 1.0011982 1.0184541 1.0014676
1.0079783 1.0091131 0.9970547 1.0165133 1.005749 0.99899507 1.0030868 1.0096484
1.0110625 1.0187675 1.0117178 1.0052716 1.0270784 0.9916455 0.99636525 1.0106002
0.9979135 0.9999792 1.0241172 1.0033613 1.0028946 1.0051867 1.0075102 1.0137534
1.011742 1.0043131 1.0101928 1.0100478 0.99543273 0.99342483 0.9865218 1.023346
00000000: fba2 7e3f 41f0 813f 7947 803f aa1c 833f
00000010: 32d4 823f 400f 813f 9dd2 7e3f 3249 813f
00000020: 439d 823f cae1 803f 07cd 803f fc6f 803f
00000030: dbb7 7f3f 4327 803f b45c 823f 1730 803f
00000040: 6f05 813f 9e2a 813f fa3e 7f3f 1c1d 823f
00000050: 62bc 803f 24be 7f3f 2665 803f 293c 813f
00000060: 7f6a 813f f966 823f f87f 813f bdac 803f
00000070: 4e77 833f 7bdc 7d3f cb11 7f3f 595b 813f
00000080: 4277 7f3f a3fe 7f3f 4616 833f 256e 803f
00000090: da5e 803f f5a9 803f 18f6 803f acc2 813f
000000a0: c380 813f 558d 803f ff4d 813f 3f49 813f
000000b0: aed4 7e3f 1751 7e3f b18c 7c3f 00fd 823f

transformer.h.0.ln_2.bias f4 [48]
-0.015463864 -0.0033767936 -0.012640229 0.0053442735 0.0033742574 0.0109363 -0.016668852 -0.0034346771
0.004656601 -0.01000882 -0.0016838517 0.0058563002 0.010257319 -0.018200735 -0.00754507 0.011816055
-0.0021420198 0.0055915248 -0.0003605855 -0.00041797632 0.010144075 -0.009857932 0.0046157986 -0.015720166
7.3926676e-05 0.0029023413 0.009406022 0.011420544 0.0043198816 0.012058101 0.013540897 -0.00016270425
-0.0031132293 -0.009262382 -0.0054124086 0.0009526032 0.002709321 0.008284239 -0.004393153 0.0025189628
0.001050928 -0.005773239 -0.001640076 -0.0019808917 -0.00977432 -0.007846304 -0.010390776 -0.0065549123
00000000: 265c 7dbc 324d 5dbb f718 4fbc 041f af3b
00000010: a522 5d3b 2b2e 333c 1e8d 88bc 5218 61bb
00000020: 6796 983b 09fc 23bc b0b4 dcba 35e6 bf3b
00000030: 500e 283c b519 95bc a23c f7bb 2098 413c
00000040: 2161 0cbb 1c39 b73b f70c bdb9 d523 dbb9
00000050: 5633 263c 2a83 21bc 2040 973b 94c7 80bc
00000060: 1509 9b38 3535 3e3b b71b 1a3c 3c1d 3b3c
00000070: cb8d 8d3b 578f 453c a3da 5d3c 979b 2ab9
00000080: 5207 4cbb 3fc1 17bc 935a b1bb 1eb8 793a
00000090: dd8e 313b 9eba 073c 70f4 8fbb 2f15 253b
000000a0: 4bbf 893a 702d bdbb d2f7 d6ba d9d1 01bb
000000b0: 7824 20bc c98d 00bc 133e 2abc 97ca d6bb

transformer.h.0.mlp.c_fc.weight f4 [192, 48]
-0.022698514 -0.015341649 0.0369104 -0.021418538 0.008027247 -0.018160993 0.014199175 -0.0034159778
-0.00462167 0.013005379 -0.004416354 0.016667891 -0.017551797 -0.022023715 0.020213941 0.0050659096
0.023786264 0.011398225 -0.0051451386 -0.008236695 0.026015561 -0.030795928 0.0493537 0.031519514
-0.0021595568 0.01610858 -0.004218336 -0.046159875 0.025746742 0.023472829 -0.046350107 -0.01021473
0.02078174 -0.0042640488 -0.01979972 0.003808972 -0.010777367 -0.019399242 0.004971932 -0.04798351
-0.027041627 -0.034042735 0.031203305 0.01358455 0.0032920388 0.010262334 0.00043479752 -0.040778928
0.0074589136 0.017776897 0.013785024 0.014259682 -0.04207203 0.010733373 -0.0103579275 0.008458969
0.021594802 -0.019293906 -0.01990041 -0.0037269786 0.0040120585 0.008911155 -0.010049748 0.032402117
-0.004261131 0.002818839 0.03453544 -0.015885629 0.011589094 0.001486823 -0.023346402 -0.013130421
-0.030906979 0.03425924 -0.0028545605 -0.0030386357 0.02830714 -0.0013849671 -0.00021390633 0.0019478343
-0.0062249857 0.018903535 0.03784783 -0.040082887 0.014125949 0.014973926 0.027303098 0.022279033
-0.0015751066 -0.0027736484 -0.013642362 0.024427362 0.00510614 -0.029429894 -0.004261388 -0.067843735
0.028642222 0.009366278 0.016963514 0.0033541836 -0.010833022 -0.007790875 -0.012583375 0.02772388
-0.010103071 -0.009761515 0.007801738 -0.0053889174 -0.024659283 0.01194057 0.02534798 0.033942897
-0.0064255334 -0.015824752 0.01805506 -0.0064741396 -0.035805915 0.04239829 -0.0073547116 -0.027531985
0.0023402106 0.006634935 -0.01844954 0.05658599 0.021846013 0.017926047 -0.04770287 -0.07538977
-0.008622997 -0.002232739 -0.016941685 -0.00942643 -0.02683513 0.019281162 0.004953831 0.017217016
0.0021934337 0.017488819 0.022957541 -0.021204613 -0.023093527 -0.0054040607 -0.022528125 0.018366039
0.023179172 -0.020057188 -0.020534301 -0.0025895236 0.0137384245 -0.020784875 0.018416973 -0.0066835415
0.030715201 -0.013323316 -0.004504246 0.004187254 -0.0033771286 -0.0118183065 0.015315686 0.018153137
-0.037083164 0.0045590745 -0.01493382 -0.01689465 -0.012082357 -0.00093361293 -0.008432556 -0.012398219
0.0065612723 -0.03199238 0.039644357 0.01563379 0.003951685 0.008819589 0.01577551 0.017602496
-0.015902918 -0.029897714 -0.02181736 0.015490946 -0.01711956 -0.00021604545 0.0057663554 0.010763282
0.03396016 0.0062068217 0.007398365 -0.0007617548 0.0017282832 -0.006506758 -0.0052843154 0.045330126
-0.02666624 -0.005822633 -0.01694992 0.020899363 -0.025758281 0.017610015 0.007163403 0.022674434
0.040051434 -0.004961479 0.028635891 0.03280659 0.023248905 -0.0050714924 -0.011974821 -0.023708517
0.0036049867 0.028075963 0.017295804 -0.020100607 -0.020728536 -0.0239757 -0.0019416139 -0.021395376
0.03893026 0.023800842 -0.0050319186 0.037642248 0.0064896364 0.017670657 -0.018052397 -0.007563422
0.008471815 -0.044272486 0.0021419586 -0.0111037 0.036283743 -0.017351294 -0.0057895435 0.0062249443
-0.014295066 -0.00030331983 -0.011688634 0.000564823 0.011072785 -0.027003301 0.005456565 -0.030403137
0.0057633994 -0.009322226 -0.047952108 0.012870218 -0.018744037 -0.004834005 0.044303674 0.0040412974
0.024798324 -0.030966511 -0.06340208 0.029138608 -0.013232989 -0.039108653 -0.03606519 0.03724184
00000000: 3cf2 b9bc 8a5b 7bbc 5c2f 173d ee75 afbc
00000010: b784 033c 5dc6 94bc a8a3 683c 99de 5fbb
00000020: 6171 97bb 8314 553c 10b7 90bb 1a8b 883c
00000030: c9c8 8fbc 146b b4bc b597 a53c eeff a53b
00000040: 69db c23c 9fbf 3a3c 8d98 a8bb 34f3 06bc
00000050: 961e d53c be47 fcbc 1b27 4a3d 9b1a 013d
00000060: 5a87 0dbb 24f6 833c f839 8abb 2312 3dbd
00000070: d5ea d23c 174a c03c 9cd9 3dbd af5b 27bc
00000080: 783e aa3c 6fb9 8bbb 0633 a2bc f29f 793b
00000090: 8e93 30bc 29eb 9ebc 97eb a23b 5b8a 44bd
000000a0: 6786 ddbc 6570 0bbd 139e ff3c bb91 5e3c
000000b0: 3fbf 573b 5923 283c 89f5 e339 ce07 27bd
000000c0: e769 f43b dba0 913c 95da 613c 71a1 693c
000000d0: b953 2cbd 08db 2f3c 4cb4 29bc 7d97 0a3c
000000e0: 95e7 b03c 410e 9ebc 2f06 a3bc 5340 74bb
000000f0: 9677 833b 1800 123c b3a7 24bc 15b8 043d
00000100: f5a0 8bbb 45bc 383b 0975 0d3d 9422 82bc
00000110: 2fe0 3d3c 80e1 c23a f440 bfbc fa20 57bc
00000120: a230 fdbc 6b53 0c3d 9413 3bbb d923 47bb
00000130: 60e4 e73c c987 b5ba 0b4c 60b9 794e ff3a
00000140: f7fa cbbb 96db 9a3c 5406 1b3d f42d 24bd
00000150: 8670 673c 3355 753c bfaa df3c 8582 b63c
00000160: cf73 ceba 19c6 35bb 3784 5fbc e41b c83c
00000170: 6851 a73b f616 f1bc 1da3 8bbb a8f1 8abd
00000180: 18a3 ea3c 0475 193c 11f7 8a3c ddd1 5b3b
00000190: fd7c 31bc 994a ffbb 802a 4ebc 311d e33c
000001a0: 5a87 25bc c3ee 1fbc b9a5 ff3b 8495 b0bb
000001b0: 4402 cabc 61a2 433c 91a6 cf3c b507 0b3d
000001c0: 488d d2bb e9a2 81bc 35e8 933c 0525 d4bb
000001d0: 39a9 12bd d4a9 2d3d cbff f0bb c28a e1bc
000001e0: 385e 193b de69 d93b 7d23 97bc b6c6 673d
000001f0: 69f6 b23c a5d9 923c 1664 43bd f465 9abd
00000200: 7947 0dbc 2553 12bb 4ac9 8abc 5071 1abc
00000210: 59d5 dbbc 87f3 9d3c bf53 a23b b30a 8d3c
00000220: b6bf 0f3b b644 8f3c 7411 bc3c 4cb5 adbc
00000230: a32e bdbc 8c14 b1bb e78c b8bc 6074 963c
00000240: 3fe2 bd3c f94e a4bc 8d37 a8bc ffb4 29bb
00000250: 2117 613c 0b45 aabc 31df 963c 9c01 dbbb
00000260: 729e fb3c 0a4a 5abc 5b98 93bb 3b35 893b
00000270: d152 5dbb 92a1 41bc a5ee 7a3c e3b5 943c
00000280: 84e4 17bd 4a64 953b fbac 74bc a666 8abc
00000290: 14f5 45bc b4bd 74ba b428 0abc e621 4bbc
000002a0: f1ff d63b 710a 03bd 1f62 223d 6f12 803c
000002b0: 237d 813b 0a80 103c a43b 813c 1c33 903c
000002c0: d646 82bc 0dec f4bc 52ba b2bc bdcd 7d3c
000002d0: 523e 8cbc 428a 62b9 b2f3 bc3b 7a58 303c
000002e0: cf19 0b3d 9862 cb3b fc6d f23b 80b0 47ba
000002f0: 9087 e23a a436 d5bb 0d28 adbb 15ac 393d
00000300: 2973 dabc c9cb bebb 8fda 8abc 2435 ab3c
00000310: 0803 d3bc e142 903c fbba ea3b bcbf b93c
00000320: f90c 243d e793 a2bb d195 ea3c 3460 063d
00000330: 7d74 be3c c32e a6bb 0a32 44bc 5d38 c2bc
00000340: a441 6c3b 90ff e53c eeaf 8d3c 07aa a4bc
00000350: e4ce a9bc b068 c4bc c07d feba 5b45 afbc
00000360: 5675 1f3d fcf9 c23c cbe2 a4bb c22e 1a3d
00000370: 04a7 d43b 0ec2 903c 9fe2 93bc 95d6 f7bb
00000380: 5ecd 0a3c 1157 35bd 1a60 0c3b 4bec 35bc
00000390: 439e 143d 4d24 8ebc 36b6 bdbb 9efa cb3b
000003a0: da35 6abc e606 9fb9 af81 3fbc a110 143a
000003b0: a06a 353c 0736 ddbc fccc b23b 0010 f9bc
000003c0: e6da bc3b 40bc 18bc 6e69 44bd 9bdd 523c
000003d0: 188d 99bc 9366 9ebb c577 353d dc6c 843b
000003e0: db25 cb3c 7bad fdbc f3d8 81bd 17b4 ee3c
000003f0: 2ecf 58bc 6530 20bd 18b9 13bd e68a 183d

transformer.h.0.mlp.c_fc.bias f4 [192]
-0.0012403523 -0.003596346 -0.009537414 0.014617719 -0.0011052768 -0.0007367865 5.4879063e-05 -0.0049393475
-0.0050595347 0.0007410455 -0.0059589935 -0.00025524123 0.0053596767 -0.018305779 -0.010473375 0.0033968561
0.0024749856 0.0057808217 0.004570035 0.00065289065 0.0050780247 0.0070053544 0.00092796056 -0.0035964013
-0.003044477 0.008526109 -0.005145849 0.0021156261 0.0003347536 -0.0017712221 -0.0050953655 2.352906e-05
0.0011531158 -0.00080040493 -0.0043141 0.0050609936 0.004852823 0.0012794278 -0.0087679615 0.004123463
0.007189945 0.011883636 -0.0025293913 0.0014680657 0.0029898451 0.007224019 -0.00094916107 -0.0028206373
0.00035160047 -0.0029604735 -0.0070573837 0.0042628073 -0.0027457788 -0.00063041307 -0.013129494 0.0007255444
0.003631798 0.0024746482 0.0034411899 0.008628768 0.008595562 0.0057478375 -0.0007418193 -0.0005101793
-0.0014923152 0.0021965147 -0.005419279 -0.004352236 0.0027104968 -0.0070937583 0.0022770343 0.0029543205
-0.012289241 -0.010258485 -0.01142518 0.003279943 -0.00047298457 -0.0044321497 0.00404702 0.00097044447
-0.004519819 -0.0065318863 0.005376928 -0.0016181847 0.004635904 -0.0014848212 0.006643773 -0.019608678
0.0013031802 -0.012923743 0.010874062 -0.0038475993 -0.006010425 0.0033705037 0.0033353735 0.0052523464
-0.0002088419 0.0014255387 -0.0008119522 -0.0038945975 -0.00234288 -0.0012422501 0.005422511 0.003817298
0.0015959056 0.0073221447 -0.007770013 0.0049154577 0.0076497 -0.0041464814 0.0082440665 -0.0014008065
0.004431468 -0.0032520455 -0.0015886344 -0.0064412877 0.009996787 0.0067074085 -0.0019349013 0.0036722147
-0.0022411859 -0.0030947367 0.004574623 9.9543846e-05 -0.00720902 -0.0022648256 -0.0051729945 0.0054546734
0.0013473737 0.0077092657 0.0034829387 -0.0007995409 -0.00667147 -0.0026780854 -0.0021475179 0.000783049
-0.0019140512 0.0017572275 0.0019085497 0.009241255 0.008398572 -0.0015378159 0.004187546 -0.0003941129
-0.0010568784 -0.0056715836 0.0004772734 0.0050496184 0.0029675427 -0.006741828 0.0057422183 -0.0024126233
0.0031968816 -0.0044869944 0.003688821 -0.009517831 0.009424215 0.0036774743 -0.0064721266 -0.0042381296
0.00028947683 -0.004382196 -0.0014573281 -0.007657577 0.0018659652 -0.003466741 0.0059717014 -0.0016719177
0.009060242 0.0057674726 -0.0011900427 0.007897322 -0.0075438 0.003000274 0.004111564 0.0012152668
-0.0071513834 -0.0028866425 0.007961349 0.00046990527 0.00871779 0.008876473 -0.011543959 -0.0002845517
0.006436684 -0.006802532 0.0024389403 -0.0012960442 -0.010747212 0.007382532 -0.010389026 0.0042482708
00000000: 5193 a2ba acb0 6bbb d042 1cbc 287f 6f3c
00000010: efde 90ba e824 41ba f22d 6638 40da a1bb
00000020: 74ca a5bb b942 423a a943 c3bb e6d1 85b9
00000030: 3aa0 af3b 00f6 95bc 8598 2bbc ca9d 5e3b
00000040: 5e33 223b 0c6d bd3b 3bc0 953b c026 2b3a
00000050: 8f65 a63b 2c8d e53b 6142 733a 9ab1 6bbb
00000060: d985 47bb 18b1 0b3c 839e a8bb 51a6 0a3b
00000070: de81 af39 5a28 e8ba 06f7 a6bb 4660 c537
00000080: 2524 973a 44d2 51ba 4b5d 8dbb b1d6 a53b
00000090: 6e04 9f3b 79b2 a73a 7fa7 0fbc 1d1e 873b
000000a0: a199 eb3b 95b3 423c 25c4 25bb 1c6c c03a
000000b0: 47f1 433b 77b7 ec3b 1fd1 78ba 71da 38bb
000000c0: 0457 b839 8104 42bb a041 e7bb 05af 8b3b
000000d0: 86f2 33bb 4e42 25ba 171d 57bc 7632 3e3a
000000e0: 7603 6e3b b52d 223b 9685 613b ad5f 0d3c
000000f0: 66d4 0c3c 5b58 bc3b a776 42ba 8ebd 05ba
00000100: ca99 c3ba 67f3 0f3b 3594 b1bb 349d 8ebb
00000110: 97a2 313b c272 e8bb 4c3a 153b 469d 413b
00000120: d058 49bc 3413 28bc ae30 3bbc 50f4 563b
00000130: eafa f7b9 913b 91bb dd9c 843b 6d65 7e3a
00000140: fd1a 94bb 6f09 d6bb f130 b03b 4519 d4ba
00000150: c8e8 973b 559e c2ba 02b4 d93b 61a2 a0bc
00000160: 79cf aa3a 1bbe 53bc 1f29 323c 0128 7cbb
00000170: 19f3 c4bb abe3 5c3b 4896 5a3b e01b ac3b
00000180: 92fc 5ab9 24d9 ba3a 31d9 54ba 813c 7fbb
00000190: 018b 19bb ffd2 a2ba 52af b13b a22b 7a3b
000001a0: b52d d13a 9aee ef3b 989b febb d911 a13b
000001b0: 56aa fa3b 35df 87bb 1f12 073c 449b b7ba
000001c0: d935 913b 4520 55bb ba39 d0ba 7011 d3bb
000001d0: 90c9 233c d2c9 db3b 849c fdba 8aa9 703b
000001e0: dce0 12bb 11d1 4abb b8e6 953b 32c2 d038
000001f0: a539 ecbb 786d 14bb 3982 a9bb 1ebd b23b
00000200: 5c9a b03a 029e fc3b 0442 643b 4898 51ba
00000210: 599c dabb d182 2fbb 5fbd 0cbb 8745 4d3a
00000220: e7e0 faba c552 e63a 4d28 fa3a a268 173c
00000230: 2a9a 093c 8a90 c9ba af37 893b f0a0 ceb9
00000240: f486 8aba b1d8 b9bb 8d3a fa39 4577 a53b
00000250: 1b7b 423b 8dea dcbb 3829 bc3b 1a1d 1ebb
00000260: c682 513b a307 93bb 26c0 713b adf0 1bbc
00000270: 0668 1a3c c801 713b 2214 d4bb 02e0 8abb
00000280: ecc4 9739 8698 8fbb d103 bfba 69ec fabb
00000290: 6793 f43a 4332 63bb 43ae c33b 4024 dbba
000002a0: 6971 143c 11fd bc3b 35fb 9bba c563 013c
000002b0: fb31 f7bb 3fa0 443b 4cba 863b 9649 9f3a
000002c0: 2756 eabb d32d 3dbb 5170 023c 9e5d f639
000002d0: 10d5 0e3c a06e 113c e022 3dbc e22f 95b9
000002e0: d2ea d23b c6e7 debb a1d6 1f3b 07e0 a9ba
000002f0: 1315 30bc 2be9 f13b bc36 2abc 1435 8b3b
