dqn_policy.pt (torch, 71511 bytes, 6 tensors)

layer1.weight f4 [128, 4]
000000 fc df 42 bf bf 43 3e bd 7e 33 fc 3e f0 db 3c 3e
       -0.76123023 -0.046451326 0.49258035 0.18443274
000010 62 46 1d 3e 95 27 e7 3e c1 7a 8c be 2f 67 16 be
       0.1535888 0.45147386 -0.27437404 -0.14687799
000020 3e 6c a8 3e ab 74 94 3e dc 02 04 3f 2a 8e 56 3d
       0.32895082 0.2899526 0.51566863 0.052381672
000030 eb 9c 82 3e c5 92 d8 be 28 15 e2 be b6 7d c5 be
       0.25510344 -0.42299476 -0.44156766 -0.38572472
000040 76 52 be be 94 56 67 be 3b b4 5d 3f 19 71 b3 3e
       -0.37172288 -0.2259162 0.86603135 0.35047224
000050 9b b3 d2 be e6 cc e1 be a7 e5 29 be 47 a9 b3 be
       -0.41152653 -0.44101638 -0.16591512 -0.35090086
000060 5e 95 d5 be 13 ac 2f be 52 a1 df 3e ad 31 4d be
       -0.4171552 -0.17155485 0.43677765 -0.20038481
000070 33 92 4b 3e f2 98 a8 be 49 c3 92 3c 38 83 ee 3d
       0.1987999 -0.32929188 0.017915385 0.11646122
000080 54 93 e0 3e a4 90 cc be 11 c0 19 3e 26 d1 91 3e
       0.43862402 -0.39954102 0.15014674 0.2847988
000090 54 15 70 be c2 2b 16 bf d0 ae 7e bf bf 2f d8 be
       -0.23445636 -0.5866052 -0.9948549 -0.42223927
0000a0 29 7e c0 be 6c c0 68 bd c3 92 4d be 28 58 06 3e
       -0.37596253 -0.056824133 -0.20075516 0.13119566
0000b0 dd 64 86 3b 5e 6d 26 bd cd 37 f1 3d 00 f7 8e bd
       0.0041013793 -0.040631644 0.11778221 -0.06980705
0000c0 f3 2c b6 3e 8e a5 30 be ea fe fc 3e d0 db d0 be
       0.3558117 -0.17250654 0.49413234 -0.40792704
0000d0 84 4d 7e 3e 51 0f 1d be e8 b5 3d bd 30 53 e4 bc
       0.24834257 -0.15337874 -0.046316057 -0.027871698
0000e0 b7 c1 9e 3e 70 b4 a6 3d 53 94 1d bf de 22 3c bc
       0.31007168 0.081398845 -0.6155445 -0.011482922
0000f0 e9 ba ca bd ae 75 e3 be 90 5e 80 3e c5 b2 8e 3e
       -0.098989315 -0.4442572 0.25072145 0.27870765
000100 0b ec dc bd 6f c4 a6 3e bd d4 9f 3e 5b 45 e6 3e
       -0.10787209 0.32571742 0.31216994 0.4497479
000110 dc 1e 6a be 61 ef e0 3d c0 11 b3 3e 9d d3 84 be
       -0.22863334 0.10983158 0.3497448 -0.25942698
000120 f9 87 0b 3e d9 25 88 bd 7a 6c aa be d8 48 e1 bd
       0.13626088 -0.06647844 -0.33285886 -0.11000222
000130 33 3d 2b 3e 7e af 21 3e 21 6d 2a be d7 25 24 3e
       0.16722564 0.15789601 -0.16643192 0.1603006
000140 94 64 3c 3e 6d a6 03 3e bc e7 39 be fd 7f 75 3d
       0.18397743 0.12856455 -0.18154806 0.059936512
000150 39 a1 8e 3e 74 6c 0c 3f ba c8 e7 3e 33 75 b4 3e
       0.27857378 0.54852986 0.4527033 0.35245666
000160 b0 5e ce 3d c9 64 b6 3e d0 fd 41 3f be 56 e7 3e
       0.10076654 0.35623768 0.7577791 0.45183367
000170 21 e6 a4 3e 33 b3 1e 3e 34 bc 6f 3f f6 bc ec 3d
       0.32206824 0.15498047 0.9364655 0.11559479
000180 af 4b 4f be 57 0a e5 3e ea 7b ae 3e ec fa ae be
       -0.20243715 0.4473445 0.34078914 -0.34175813
000190 5b 0e 93 3e 1b 4c 92 3e bd 7e 2d 3e 82 1f aa 3e
       0.2872189 0.2857369 0.16942878 0.33227164
0001a0 30 3d 1c 3e 76 24 82 3c b3 bb 16 bf a8 15 51 bd
       0.15257716 0.015886527 -0.58880156 -0.051046044
0001b0 ea 53 54 be 5d 13 56 be 0e cc 5d bf 50 05 f4 be
       -0.20735136 -0.20905824 -0.8663949 -0.47660303
0001c0 30 f5 29 3e f6 b9 6f 3e 30 c0 19 3e 9c 99 8f be
       0.16597438 0.23410782 0.1501472 -0.28046882
0001d0 39 4c d8 3e 3e 3a c4 3e 77 45 b5 bd e0 c6 2c 3d
       0.42245653 0.38325685 -0.0885114 0.04218185
0001e0 94 10 82 3d 90 3f c9 be dc 20 db be 16 40 ad 3e
       0.06350818 -0.39306307 -0.42798507 0.33837956
0001f0 c5 62 3f be 5d eb ef be 42 5d 52 ba 1c 09 24 be
       -0.18690021 -0.46859255 -0.0008024761 -0.160191
000200 3a be f6 bd f7 26 eb be 7e 63 47 3e d8 d7 26 bd
       -0.120480016 -0.45928165 0.19471547 -0.04073319
000210 bb 78 a0 3e 84 8c cf 3e 07 f5 a7 3c 04 ad 9a 3d
       0.3134211 0.40536892 0.02050258 0.07552531
000220 ec 8f 34 be 7b 04 1f bf 20 64 84 bf cb 2e ee be
       -0.17633027 -0.6211621 -1.0343056 -0.46520075
000230 c0 a0 60 3e a9 00 9f 3e f0 70 1c bf 3b e5 3f 3d
       0.21936321 0.3105519 -0.6110983 0.04684947
000240 9e 49 fa be d5 20 32 be e7 ea 45 bf e8 e0 68 be
       -0.4888429 -0.17395337 -0.7731156 -0.22742045
000250 12 f1 9a 3d 2d 1b fe bc 1b 64 97 be 3a 78 85 bd
       0.07565512 -0.031018818 -0.29568562 -0.06517072
000260 23 c2 dc be c7 c9 14 be 69 68 b3 3e 80 3e 69 bc
       -0.43116865 -0.14530097 0.35040596 -0.014236093
000270 5c 93 90 be b8 08 44 3e d1 8d a2 3e 14 65 2e bd
       -0.28237426 0.19143951 0.31748822 -0.042576864
000280 eb 98 ee be 08 1d 99 3e ef 35 7d 3e 67 02 f8 3e
       -0.46601042 0.29904962 0.24727605 0.48439333
000290 e2 38 df 3e 8c 16 d2 be 01 e6 86 3e c5 a8 cf 3e
       0.43598086 -0.41032827 0.26347354 0.40558448
0002a0 18 0f 07 3e 6d 0c 72 3e 95 e7 e7 3c 62 97 8a be
       0.13189352 0.23637553 0.02830867 -0.2706862
0002b0 42 b1 3f be 2f a1 48 3e 8c 5c 0e 3f 73 71 48 bd
       -0.18719962 0.19592737 0.55609965 -0.04893632
0002c0 20 44 c3 3e fc d9 ac 3c 07 62 f9 be 18 24 93 3e
       0.38137913 0.021100037 -0.487076 0.28738475
0002d0 75 ef 13 3f d1 f4 0b 3f 76 f2 bc 3e e1 8c 5c 3e
       0.5778726 0.54670435 0.36903733 0.21538116
0002e0 0d 4b f9 3e 1b b5 1a be 73 65 49 3f f5 d2 ae bc
       0.48690072 -0.15108149 0.78670424 -0.021340827
0002f0 bd 81 7e be 60 bd 85 3e 2a 97 ea 3c ed ed fb 3e
       -0.24854179 0.26121044 0.028636534 0.4920496
000300 25 2d d7 be 81 7e 34 be db 01 68 bf 2b 32 fa be
       -0.4202663 -0.17626382 -0.9062783 -0.488664
000310 a9 c2 43 be 38 8a e8 be 96 34 48 be f1 8b c3 be
       -0.19117226 -0.45417953 -0.1955131 -0.38192704
000320 c1 77 a7 bd 85 73 c9 be 76 02 26 bf 9a 27 de bc
       -0.08177138 -0.39345947 -0.64847505 -0.027118493
000330 53 88 12 3e d2 7b 82 3e 0b b8 e8 3e 07 5c 82 be
       0.14309816 0.25485092 0.45452914 -0.25460836
000340 bb d0 6e 3e 7c d2 eb bd 8a 26 ac be 82 aa 5b be
       0.23321812 -0.11514756 -0.33623153 -0.21451762
000350 f4 55 28 bf e6 d4 d3 be 9d 6b dd 3e 8d b1 62 3e
       -0.65756154 -0.41373366 0.43246165 0.22138043
000360 49 0f 3b 3e f3 25 d9 be 74 c0 1e bf 24 b3 d2 be
       0.1826755 -0.42411765 -0.6201241 -0.41152298
000370 88 b6 42 3d ed ae d5 be 94 1b 04 be cb 6c 9f be
       0.047537357 -0.4173502 -0.12901145 -0.3113769
000380 13 52 01 be a6 83 7e bd 73 92 94 bd c5 08 2b be
       -0.12628965 -0.06213727 -0.072544955 -0.16702564
000390 a4 21 8c be 9c 5c b6 3d be bb 03 bf 31 db d2 3c
       -0.27369416 0.089043826 -0.51458347 0.025739284
0003a0 67 27 9b be 10 a1 4a 3d a9 e8 7f ba 63 4e 2a 3c
       -0.303035 0.049470007 -0.0009762147 0.010394665
0003b0 51 3c ac 3e 8a 54 2e be 13 fc cd 3d a3 b6 37 be
       0.33639768 -0.17024437 0.10057845 -0.17940764
0003c0 d4 6c 8e 3e 09 6a 5c 3e fd 39 be be 59 5e 9c 3d
       0.27817404 0.21524824 -0.37153617 0.07635183
0003d0 ac 48 f8 bd ea 2d 5a bd 54 62 dd be a1 16 6a 3e
       -0.12123236 -0.053266443 -0.4323908 0.22860195
0003e0 0b 49 60 3e ee ac 86 3e 7b c9 f4 bd 2e aa 33 3c
       0.21902864 0.2630381 -0.11952492 0.010965867
0003f0 5b 88 c1 3c d8 87 bb be 2e 36 46 be 10 ec e8 be
       0.02362459 -0.36627078 -0.19356605 -0.454926

layer1.bias f4 [128]
000000 87 01 a1 be 34 f4 cc be 73 4c dc be 56 f4 07 3f
       -0.31446478 -0.40030062 -0.43027076 0.531072
000010 1a be 66 3e 07 b0 76 be ee 99 c8 3e 86 e1 31 3f
       0.22533455 -0.24090587 0.3917994 0.69484746
000020 f6 f7 13 3f 80 c1 25 3d 1c f0 8f 3e 1b 8a b3 3e
       0.57800233 0.04046774 0.28112876 0.35066304
000030 da 48 25 3e 70 5b 12 3f df 1e 9f be 0e 7a 2d 3f
       0.16141072 0.5717077 -0.3107824 0.67764366
000040 7b d7 a3 3e f4 2f 05 3f ac c2 a1 3e 4a a1 1f 3f
       0.32000336 0.52026296 0.31593835 0.6235548
000050 e9 71 cf 3e 48 75 b8 bd c0 cf dc be e8 95 3b bd
       0.40516594 -0.090067446 -0.4312725 -0.04579726
000060 cd 0b a6 3d 56 2f 9c 3e 6b e8 b9 3e cf 07 8b 3c
       0.081077196 0.30504864 0.36310133 0.016971497
000070 5a b2 bc be df 9d 79 be 3e 70 05 3f 59 36 0f 3f
       -0.3685482 -0.2437663 0.52124393 0.559423
000080 d6 e7 98 be 56 83 22 3f 5b 32 61 3d 4c 63 34 3f
       -0.29864377 0.6348165 0.054979663 0.70464015
000090 d2 5a 5d be 13 39 9c be d9 88 14 3e e4 90 25 3f
       -0.21616676 -0.30512294 0.14505328 0.6467421
0000a0 95 b5 57 be a3 d8 f1 3e b1 88 19 3f 7a b8 a4 3e
       -0.21065362 0.47235593 0.599742 0.32171994
0000b0 99 a2 ab 3e dd 20 8c be 33 46 43 be 29 dd d1 be
       0.3352249 -0.27368823 -0.19069748 -0.40989044
0000c0 47 d9 9a be d4 9c 01 3f 0a d3 ce 3e 51 77 88 be
       -0.30243894 0.50629926 0.40395385 -0.2665353
0000d0 7a 67 21 3f 8d 87 04 bf d1 ea 17 3f 25 ef ac 3e
       0.6304852 -0.51769334 0.59342676 0.33776203
0000e0 3c df 1c 3f 1d 45 1d 3f 93 4d 2c 3f 20 fb d3 3e
       0.6127813 0.61433583 0.6730587 0.4140253
0000f0 3c 20 bd be 57 95 1b 3f ad fd d8 3e 21 27 11 be
       -0.36938655 0.6077475 0.4238104 -0.14175083
000100 c3 e4 d9 be d9 9d 4d be 2c 49 03 3f f5 22 06 3e
       -0.42557344 -0.20079745 0.51283526 0.13099273
000110 64 8f c0 3e 5e cc a7 3e 4c 32 34 be 0c 0a 0e 3f
       0.37609398 0.32773107 -0.17597312 0.5548408
000120 c1 63 8a 3e 34 4e ae 3e e5 2b a8 3e dd 40 b8 bd
       0.2702923 0.3404404 0.3284599 -0.08996747
000130 84 72 36 3f e7 28 19 bf 94 30 ae be af 99 f1 3e
       0.71268487 -0.5982804 -0.34021437 0.47187564
000140 c6 cb bc 3e 8a 82 e1 3e 38 db a9 3e 81 f1 ac 3d
       0.36874217 0.44044906 0.33175063 0.08444501
000150 5b 37 9a 3e ad 16 a3 3e a4 05 5e be 5d 85 e9 3e
       0.30120358 0.31853238 -0.21681839 0.4560956
000160 b9 f1 73 be 8b b5 32 3f 99 7f ba be c9 78 b1 be
       -0.23822679 0.6980826 -0.36425474 -0.34662464
000170 2b f8 8a 3e 84 93 26 3f 14 ce ab be 48 bb 0e be
       0.27142462 0.6506884 -0.33555663 -0.1393863
000180 89 02 d7 3c 6b 54 31 3e 76 5f e3 3e 4a bd c2 3b
       0.026246326 0.17317359 0.44408768 0.005942975
000190 e2 32 a6 be 53 2f f3 ba 16 2d 86 3c d8 51 73 be
       -0.32460696 -0.0018553532 0.01637892 -0.2376169
0001a0 28 f9 a0 bd 67 d9 e4 3e 9a d4 e2 be 0a a0 15 3f
       -0.07860023 0.44697115 -0.44302827 0.58447325
0001b0 e9 4a 0e 3f 17 0b db 3e 96 3c b7 be bc 67 f8 be
       0.55583054 0.42781898 -0.3578841 -0.48516643
0001c0 94 c8 d6 be 1b b4 cf 3e 63 32 31 be 65 09 0a 3e
       -0.41949904 0.40567097 -0.17304377 0.13480146
0001d0 29 6d 1c be 06 5f ba 3e 98 39 ba 3e 8c d1 a1 3e
       -0.15276016 0.36400622 0.36372066 0.31605184
0001e0 de 2a b5 3e 5e 03 bd be 99 04 a3 be 50 fe 00 bf
       0.35384268 -0.3691663 -0.31839445 -0.5038805
0001f0 5d 63 14 3e aa 35 d7 3e 03 8d 34 be a1 0c fb be
       0.14491029 0.4203313 -0.17631917 -0.49033073

layer2.weight f4 [128, 128]
000000 e6 d6 9b 3c 00 e7 20 3d c2 fc 1f 3d ba 77 0a bd
       0.01902337 0.0392828 0.039059408 -0.033805586
000010 ad cc 35 3d b1 ac 6d 3d 74 e9 d5 3d 7f 05 97 bc
       0.044384647 0.05802602 0.10444918 -0.018435238
000020 20 25 fb 3c 19 80 0a 3e c3 aa 97 bc c5 87 1f 3d
       0.030657351 0.13525428 -0.018514043 0.03894784
000030 f0 76 85 bd 4f f7 35 3d 84 e8 9b 3d 92 48 ae bb
       -0.06516826 0.044425305 0.07612708 -0.0053187096
000040 86 92 6d be 45 ba bb 3b e9 c4 cc bc 2c c4 a1 bd
       -0.23200426 0.005728992 -0.024996238 -0.07898745
000050 76 73 af bd a3 ca 78 3d 65 10 78 bc 88 42 6f bd
       -0.08566944 0.060740124 -0.0151406275 -0.05841306
000060 b6 19 39 be c5 f8 b6 be 5e 0c 11 3e 2d 2e 98 3d
       -0.18076214 -0.3573667 0.14164874 0.07430682
000070 ec 4b 3f bd f3 5a 4f 3d 55 bb e2 bc da fa e1 3d
       -0.046703264 0.050623845 -0.027677217 0.11034174
000080 61 02 46 3d ad dd 4f be 50 74 0e 3e 15 2c 3e bd
       0.048342112 -0.20299406 0.13911557 -0.04642876
000090 ca 4c fd 3d cd 5a 41 bd bd 6b ab 3d ec 70 23 bc
       0.12368162 -0.047205735 0.08370159 -0.009975653
0000a0 6c db 55 3e 2f 34 a3 bd e1 ed a6 bd f4 84 3d 3d
       0.20884484 -0.079689376 -0.081508406 0.046269372
0000b0 9d f3 96 3d e1 3c 09 3d d7 60 20 bd fd e5 da 3c
       0.07370684 0.033505324 -0.039154854 0.026720995
0000c0 2f 08 cd 3d 3a 66 86 3d 24 55 45 3d 30 94 7d 3d
       0.100113265 0.06562467 0.0481769 0.0619089
0000d0 26 0d d8 3d 1a 5f a3 3d 56 c0 cc bc 79 58 ee bc
       0.10549383 0.079771236 -0.024994057 -0.029094921
0000e0 24 37 6b 3d b2 ab 46 3d 20 05 e4 3b f3 a0 21 3c
       0.057425633 0.048503585 0.0069586188 0.009865033
0000f0 1f f0 1d 3d 2b 22 1f 3d 51 47 3c be 05 86 2c 3d
       0.038559075 0.038850944 -0.1838658 0.04212
000100 8a 1a 73 3d 2b 73 62 3c 50 e8 13 bd 8c f5 ea bc
       0.05935148 0.0138214035 -0.036110222 -0.028681539
000110 5c 91 bf 3d cc 8f 23 be ad 08 9a 3c 41 9e ef bc
       0.09353897 -0.15972823 0.018802965 -0.029250266
000120 3c 0c 52 bd 13 8d 76 bd 1a 7f 90 3d b9 ed bb 3d
       -0.0512812 -0.060193133 0.07055493 0.091762014
000130 9a 1e 96 3d a6 f6 19 3d 95 c1 e9 3d 51 84 e0 3d
       0.073300555 0.037588738 0.11413876 0.10962737
000140 f8 77 a4 3d 8e fb 0b be 6c e5 85 bc 82 3e 8a bd
       0.08030695 -0.13670179 -0.016344748 -0.06750204
000150 cc 26 ac bd df 4b b0 3d f1 b4 4e bd 88 1b 5f bd
       -0.084058374 0.08608221 -0.050465528 -0.054469615
000160 8d b5 95 bb 51 e6 f1 bc 8c 3a 12 bc 5b c3 66 3d
       -0.0045687617 -0.029528769 -0.0089250915 0.05633865
000170 f1 60 77 be 43 32 b9 bd cc 02 f2 bc b4 fa 0e 3d
       -0.24158074 -0.0904279 -0.02954235 0.034907058
000180 1d 07 64 3d bd 32 7b bd 98 9d 13 be 57 09 ac bc
       0.055670846 -0.061327685 -0.14415586 -0.021000547
000190 a8 fb ad bd 97 6e f1 3d 97 f1 fe 3d a1 3e 2d 3d
       -0.08495265 0.117886715 0.12448423 0.042296056
0001a0 16 6b 81 bc ae e8 95 3c 03 0d 20 bd 95 af b9 3c
       -0.015798133 0.018299427 -0.03907491 0.022666732
0001b0 32 ce 0d bc 0d 40 2f 3d ae 4f 62 3c 38 00 e5 bd
       -0.008655118 0.042785693 0.013812942 -0.11181682
0001c0 a6 fa 57 3c db 38 94 3d 36 05 22 3d b8 39 9d 3d
       0.013182318 0.07237407 0.03955575 0.076770246
0001d0 a0 91 d4 bb 23 14 26 be 0c d6 3a 3d e4 03 8b 3d
       -0.0064870864 -0.16218619 0.045614287 0.067878515
0001e0 8b 03 64 be 41 2b 37 3e cb a7 97 bd 89 b5 48 bb
       -0.22266977 0.17887594 -0.07405051 -0.0030625782
0001f0 ee ca e2 bd 2f f2 4d be 6d f6 a0 bd ba e2 cf bc
       -0.11073862 -0.20111917 -0.07859502 -0.025376666
000200 92 49 94 bd f7 92 a4 bd dd ba 5e bc df 43 71 3d
       -0.07240595 -0.08035844 -0.013594356 0.058902618
000210 81 e8 6d bd da 2b 1d bd 6c a0 3d bc f1 bb 77 bd
       -0.05808306 -0.0383719 -0.011573892 -0.06048197
000220 f4 32 8a 3d 32 e3 48 3d ed fd 8b bd cd 86 43 3b
       0.06748 0.049044795 -0.06835542 0.0029834986
000230 57 ce da bc ba e7 97 bc 2f 5d 25 3d c1 6a 75 3b
       -0.026709719 -0.018543113 0.04037207 0.0037447663
000240 f5 86 54 3d 11 df d6 3c 4e b3 02 3d 02 83 85 3d
       0.051886518 0.026229413 0.03190928 0.065191284
000250 02 b8 43 3d f3 b2 85 3b dd 79 eb bb 7c 3c 98 bd
       0.047782905 0.0040801703 -0.007186158 -0.074334115
000260 cf 92 55 3d ac dd 81 3c 47 77 66 bd dc a6 1c bd
       0.05214196 0.015852772 -0.056266095 -0.038245067
000270 08 57 95 3d ed d3 1d 3d 95 63 33 bd 41 9b 75 bd
       0.072919905 0.038532186 -0.04379614 -0.059962515
000280 e7 1c 15 3d d6 c2 37 bd 5c 6f a6 3c 77 63 92 bd
       0.036404517 -0.044863544 0.020316772 -0.07147878
000290 c3 1f 51 bd fe 1f d0 bc 46 37 fe 3b 74 ac 0a bd
       -0.05105568 -0.02540588 0.007758054 -0.03385587
0002a0 ab a9 4a 3d 75 6b 95 bd c8 da 0d bd b5 9f a4 3d
       0.049478214 -0.072958864 -0.034632474 0.08038274
0002b0 53 1c 83 3d d8 32 e0 3c 71 7a 4c bc 78 6f 6e bd
       0.06401887 0.027367994 -0.012480364 -0.058211774
0002c0 93 1f 50 bd d0 95 00 bd 2d c5 cd bc ec d3 8a 3d
       -0.05081136 -0.031392872 -0.025118435 0.06778702
0002d0 4e 4d a1 bd 50 3d 08 3d 94 4b 93 3d 42 bc 03 3d
       -0.07876073 0.033261597 0.0719215 0.03216196
0002e0 0b 6c 99 bd ff 22 38 bd 74 8e 99 bc e3 0d 28 3d
       -0.07491311 -0.04495525 -0.018744685 0.04102887
0002f0 18 08 1a 3d 28 24 3a 3c d8 ef 4c bd 60 58 53 bd
       0.037605375 0.011361159 -0.05003342 -0.051597953
000300 10 5c 9e 3c 2c 60 9b 3d 30 70 7f 3d 0a 53 06 3c
       0.019331008 0.07586703 0.06236285 0.008198509
000310 9a 07 c3 bc be 72 5e 3d 60 7c 05 3d 01 81 53 bc
       -0.023807336 0.054308645 0.032589316 -0.012909175
000320 5c da 80 bd b0 7f 8e bd 4d 23 3e 3d ff 33 c9 bc
       -0.06291649 -0.06957948 0.046420384 -0.024560926
000330 ea 24 77 3d 51 3e d6 3b d8 0f 5c 3d 5d 99 84 3b
       0.06033794 0.0065381904 0.053726047 0.0040466026
000340 f1 c9 37 bd c8 d7 38 3d da 3d 3c bd db f5 fd bc
       -0.04487032 0.04512766 -0.045957424 -0.031001022
000350 a7 c5 94 3c ca af 78 bc 8a 0c 92 bd 90 65 a1 bd
       0.018160654 -0.01517863 -0.07131298 -0.078807
000360 e4 b0 1e bc 5e f1 1b 3d 07 0a 81 bd ac 39 2c 3d
       -0.009685729 0.038071983 -0.06300741 0.042047188
000370 bd 98 41 3d 62 ae d4 bc 27 b8 82 bd 30 7e 33 bd
       0.047264803 -0.025962058 -0.063827805 -0.043821514
000380 1e fa 85 3d 66 d7 12 bd 9a 9e 06 3d 4f 2a 66 3d
       0.06541847 -0.03584995 0.032866098 0.056192692
000390 1c ec 00 3d 43 07 9c 3d 22 97 4c 3d 37 aa a3 3d
       0.03147517 0.076185726 0.04994882 0.0799145
0003a0 7b 39 91 bd 81 cd a4 bc b2 f5 aa bc 90 26 93 bd
       -0.07091042 -0.020117523 -0.02086911 -0.071850896
0003b0 84 9c 41 bb 26 f5 7d bd 5c b0 82 bd e6 b2 dd 3c
       -0.0029542753 -0.06200137 -0.06381294 0.027062844
0003c0 f8 24 db bc 63 b5 28 bc 9d 38 5d 3c e8 6b 8e bb
       -0.026751027 -0.010297152 0.013502267 -0.0043463595
0003d0 99 18 cd 3c 89 fc 61 3c 6e 32 8a 3c 5d 42 40 bc
       0.025036143 0.013793119 0.01686975 -0.011734572
0003e0 09 6d 12 bd 4f 17 65 bd 04 f4 cd 3c ad dd 98 3b
       -0.035748515 -0.055930432 0.02514077 0.0046650977
0003f0 2a 59 2d 3d f3 c6 89 bd a7 04 8f bd 2e b1 85 bd
       0.04232136 -0.067274 -0.06983309 -0.06527935

layer2.bias f4 [128]
000000 ea 75 b5 3c 59 3e eb 3c 73 79 1a 3e bd 77 27 3e
       0.022150952 0.028716253 0.15085392 0.1635427
000010 7c ec 81 3e 2e fd 89 3d df 39 1c 3e ea 65 8a 3e
       0.25375736 0.06737743 0.15256451 0.2703088
000020 e2 60 16 3e 83 ac 73 3e 6a e8 cd bd 41 4f bd 3d
       0.14685395 0.23796277 -0.10054095 0.09243632
000030 bc c6 07 3e 63 49 52 3e aa 0e 64 3e 6e a9 fd bd
       0.13259405 0.20535807 0.22271219 -0.12385832
000040 d4 b2 d4 3d c3 3c 3b 3e 2e 76 7e 3d f1 aa 9f 3c
       0.10385671 0.18284898 0.062124424 0.01949069
000050 10 9f 91 3e 0a f3 1f 3e 59 f5 88 3e 35 7d 17 3e
       0.28441668 0.15620056 0.26749685 0.14793856
000060 2b 67 e5 3c e2 56 66 3e ff 4e 28 3e a1 a7 59 3d
       0.028003296 0.2249408 0.16436385 0.05313838
000070 d0 d2 9d 3e d7 9e 89 bd 0d ed 2c bd c3 d2 e0 3d
       0.308249 -0.067197494 -0.042218257 0.109776996
000080 f1 9a c1 3d ff 8a 4f 3e 3e 1b 02 3e e4 f8 37 3d
       0.09453381 0.20267867 0.12705705 0.044915095
000090 48 66 3f bc ab bf 60 bd c8 74 94 3e 34 73 76 3d
       -0.011682101 -0.05487029 0.28995347 0.06016846
0000a0 55 c4 a3 3e 7a 6a 4e 3e 9e f1 f3 3c 80 9a 74 3e
       0.31985727 0.20157805 0.029778298 0.23887062
0000b0 1f ac a1 bd 28 af 6c 3e e1 1f 9c 3d 65 f8 19 bd
       -0.078941576 0.23113692 0.07623268 -0.037590403
0000c0 13 78 5f bd a8 d3 35 bc 24 56 75 3d ac b2 3c 3e
       -0.05455787 -0.011097826 0.059896603 0.18427533
0000d0 48 4f 8e 3d 09 31 04 3d 7b fa fe bc ab 37 3f 3d
       0.069487154 0.032273326 -0.031125298 0.04668395
0000e0 5f 50 02 3c 01 09 71 3d ee 8e ab bd 54 cd 29 bd
       0.007953732 0.058846477 -0.08376871 -0.04145558
0000f0 67 59 9a bb 77 b9 77 3e f2 c9 72 3e 02 9e 5a 3d
       -0.0047103646 0.24191843 0.23709849 0.053373344
000100 79 12 d0 3b 62 85 a2 bb 13 79 81 bd 5d f9 99 bd
       0.0063498584 -0.004959748 -0.06321921 -0.075182654
000110 2a 64 92 3d cd 75 01 3e 5d 92 17 3e 5b 3f 66 3e
       0.07148011 0.12642594 0.14801927 0.22485106
000120 8c f8 55 3e 74 1e a8 3c 0e 1f 19 3c c8 29 c6 bd
       0.20895594 0.020522334 0.009345783 -0.09675938
000130 8a ac 0e 3e a7 37 e3 bb b8 f0 0b 3e 72 a2 fd 3d
       0.13933006 -0.0069341245 0.13666046 0.123844996
000140 f2 72 79 3e b6 17 84 3c 67 8f 62 3e 95 4f 9e bd
       0.24360254 0.016124588 0.22125016 -0.07730023
000150 a3 e5 af 3d 6b 3f 3a 3e 69 77 a1 bd 95 44 91 3d
       0.085887216 0.18188255 -0.07884104 0.07093159
000160 96 23 31 b9 19 c5 10 3e 9d a5 a7 bc d2 b2 9e 3b
       -0.00016893292 0.14137687 -0.020464713 0.0048430944
000170 bb 76 21 bc e6 34 10 3e dc 63 72 3e 67 be 21 3d
       -0.009854968 0.14082679 0.23670906 0.039488222
000180 7e 13 56 3e 2e fb 51 3e 4e 9e 8e 3e 79 fb 26 3e
       0.20905873 0.20505974 0.27855152 0.16306867
000190 d6 f7 8b 3e 54 5b 8e 3d a6 81 77 3e d3 d4 fc 3d
       0.2733752 0.06951013 0.2417055 0.123452805
0001a0 4e fa bb 3d 67 3b 25 3e 3d a4 16 3e 14 71 1f 3e
       0.09178601 0.16135941 0.1471109 0.1557048
0001b0 fe cb ee 3d 7e 64 10 3d 97 2a 2f bd ae 09 bb bd
       0.11660002 0.035252087 -0.042765226 -0.09132706
0001c0 d3 e3 56 bd d4 66 46 3e cb e2 94 3e 62 cc 9d 3d
       -0.052463364 0.19375163 0.2907928 0.077049986
0001d0 3d 51 98 3b c2 4f 5d bd 73 bb f8 3d 73 12 b2 3e
       0.004648356 -0.05403114 0.12145128 0.347797
0001e0 cf 58 58 3e 95 60 29 3e 72 d1 00 3d a5 52 cd 3d
       0.21127628 0.1654075 0.031449743 0.10025529
0001f0 a3 d8 e0 3d c7 45 b9 3d 98 d7 32 3e b3 07 a5 3d
       0.1097882 0.09046512 0.17465055 0.08058109

layer3.weight f4 [2, 128]
000000 6a 46 ef bd c1 a6 08 bc 3f e8 a0 3e ff 0e a6 3e
       -0.11683352 -0.0083405385 0.3142719 0.32433316
000010 d4 4e 80 3e cf da 6e bd 9e c2 c0 3e 9a 9a 2d 3e
       0.2506014 -0.05831414 0.3764848 0.16953507
000020 5b aa 5e 3c df 59 c4 3e 67 06 6c be 95 26 98 3e
       0.013590421 0.38349816 -0.23049317 0.29716936
000030 6b 52 80 3e df 52 4a 3e 81 59 7d 3e f3 c3 38 bf
       0.2506288 0.19758175 0.24741174 -0.72173995
000040 27 8f a9 3d 14 88 a9 3e 3f 9e 3b be 90 64 eb 3c
       0.08279257 0.33111632 -0.18322085 0.028734475
000050 5e 02 66 3e 6d c4 bf 3e 2d e0 b2 3e c8 95 c3 3e
       0.2246184 0.37454548 0.34936658 0.38200212
000060 aa b4 c2 be 23 6f b8 3e 74 cf a8 3e ab 2a 3c be
       -0.3802846 0.3602229 0.32970774 -0.18375652
000070 d1 a6 8e 3e ac 85 a5 be e5 ca 79 bd f7 eb b5 3e
       0.27861646 -0.32328546 -0.06098451 0.3553159
000080 9a 30 cd 3e 70 05 4d 3e a8 8c 83 3e 26 36 63 3c
       0.40076143 0.20021605 0.2569325 0.01386789
000090 e6 9b 4b bd de 60 92 3d a4 53 a7 3e 62 14 32 be
       -0.049709223 0.07147382 0.32681 -0.17390588
0000a0 fa b2 38 3e c6 f5 8d 3e 98 82 88 3e 53 ac ae 3e
       0.18037024 0.27726573 0.26662135 0.34115848
0000b0 2f d3 87 3c 69 db b7 3e cc ee 72 3e d7 12 2e 3d
       0.016580192 0.35909584 0.23723906 0.042498436
0000c0 bc 56 9a be 9e 67 92 bc ea 6a c3 be b2 e0 be 3e
       -0.30144298 -0.017871674 -0.38167506 0.37280804
0000d0 6d 16 24 3f 76 b7 64 3e f9 4f 8a 3d c9 0f 84 bc
       0.6409672 0.2233561 0.06753535 -0.016120808
0000e0 f5 42 4e be 48 24 dc 3c 0b 9e 12 bc 63 59 47 3d
       -0.2014273 0.026872769 -0.008948813 0.04866923
0000f0 aa 06 a2 bd 1e 40 aa 3e 8a 45 94 3e 39 37 07 be
       -0.07911427 0.33252043 0.28959304 -0.1320466
000100 43 2e 3a be 6a f8 ac be f1 01 88 be 6e 7b fc bc
       -0.1818171 -0.33783275 -0.2656398 -0.030820575
000110 dd 12 e5 3b 5d 79 94 3e 17 65 87 3e dc 77 36 3e
       0.006990774 0.28998843 0.26444313 0.1781916
000120 3c 72 75 3e c5 34 70 be 21 bb 80 3e dd 3b 99 be
       0.23969358 -0.2345763 0.25142768 -0.29928485
000130 d7 81 9e 3e b7 e3 47 bd 51 78 25 3e 4a 56 a1 3e
       0.30958435 -0.04880115 0.16159178 0.31511146
000140 c9 b3 da 3e 8e c3 8d 3d b8 13 a3 3e d9 93 51 be
       0.4271529 0.06922065 0.31850982 -0.20466556
000150 2d df a1 3e f1 f0 af 3e 08 2c d6 bd 8c 42 6e 3e
       0.31615582 0.3436351 -0.10457617 0.23267573
000160 ca ad 3c bd 2a 44 9d 3e 23 79 52 bc dd 11 a8 3e
       -0.046064176 0.30716068 -0.012846264 0.3282613
000170 e3 06 cf be c0 79 cb 3e b5 f4 88 3e 21 a3 5d bd
       -0.40434942 0.39741325 0.26749197 -0.05411065
000180 10 b3 b8 3e f8 1b e4 3e 03 d8 70 3e 3f e7 9c 3e
       0.36074114 0.44552588 0.23519902 0.30645177
000190 f5 b1 61 3e c2 60 83 3e 21 9c fd 3d 76 41 ab 3e
       0.22040541 0.25659758 0.12383295 0.3344838
0001a0 a0 0d b9 3e 3c 78 9c 3e 8d 6a 38 3e 40 21 b0 3e
       0.36143208 0.30560482 0.18009396 0.34400368
0001b0 a8 a9 bd 3e ed 34 fa be fa d5 4a 3d eb b4 8c be
       0.370435 -0.48868504 0.04952047 -0.2748178
0001c0 3e ea 69 be 94 95 87 3e d5 ff 42 3e 15 4c d3 3e
       -0.22843263 0.26481307 0.19042905 0.41268983
0001d0 28 a0 55 be 2d 44 61 bd ee 4d a0 3e d2 f5 99 3e
       -0.20861876 -0.054996658 0.31309456 0.3007036
0001e0 81 c1 cc 3e 11 04 df 3e 91 26 fd bd a3 85 c5 3e
       0.39991382 0.4355779 -0.123608716 0.3857852
0001f0 92 98 ab 3e 27 bc d2 3e 79 25 c0 3e 9e c7 b6 be
       0.3351484 0.41159174 0.3752859 -0.3569917
000200 ba 10 c1 bd d2 92 1c bd d7 ca 85 3e 37 63 a5 3e
       -0.094270185 -0.038225956 0.26131317 0.32302257
000210 65 11 a4 3e 67 7d 80 3d e7 ec 87 3e 4d 45 8f 3e
       0.3204452 0.062739186 0.2654793 0.2798256
000220 b9 2d 8d 3e cb 0b 74 3e 77 2e d6 be cd d4 a4 3e
       0.27573946 0.23832624 -0.41832325 0.32193604
000230 ac dd 95 3e db c0 bc 3e d8 6d 9e 3e 4b 9e 28 bf
       0.29270685 0.36865887 0.3094318 -0.65866536
000240 cf 54 bb 3e 35 72 bf 3e fb e6 7f be 4c 9c e0 bc
       0.3658814 0.3739182 -0.24990456 -0.027418278
000250 1c 3a b9 3e 5e 6a 81 3e f6 6d a1 3e e5 07 67 3e
       0.36177146 0.25276464 0.31529206 0.22561605
000260 9c 61 ac be a0 e8 88 3e 6e d8 bb 3e cb d7 a8 bd
       -0.3366822 0.2673998 0.3668856 -0.08244284
000270 02 2a ac 3e d3 69 d6 be d5 9a 0d bc 5e 6f cc b9
       0.336258 -0.41877612 -0.008642872 -0.00038992887
000280 9e 6c c6 3e 18 c1 9c 3e 01 84 14 3e e3 5c 94 bd
       0.38754743 0.3061607 0.1450348 -0.07244279
000290 cb 85 24 3c f0 8d 7d bd f0 f8 7e 3e 41 ad 09 3c
       0.010041664 -0.06190294 0.2489965 0.008403123
0002a0 f9 da 96 3e 84 4f 9d 3e 16 f4 8b 3e 23 15 3f 3e
       0.29463938 0.30724728 0.2733466 0.18660407
0002b0 4a df 99 3c e9 b9 88 3e f8 ce d5 be 05 83 77 bd
       0.01878323 0.26704338 -0.41759467 -0.060427684
0002c0 24 fe a5 be ed 8c 88 bd 1c ff 8b bc 4e 7b 29 3e
       -0.32420456 -0.066675045 -0.017089419 0.16550943
0002d0 a0 ec 48 be bb 5d a9 3e 68 ce 10 bf a4 d3 ab bc
       -0.19621515 0.33079323 -0.5656495 -0.020974942
0002e0 48 a3 b8 be 24 a2 dc bc b2 74 ec 3c f8 9c e4 3b
       -0.36062074 -0.026932783 0.028864238 0.00697672
0002f0 33 60 40 3c 38 fd a3 3e 47 f7 ba 3e c8 9e b0 be
       0.011741686 0.32029128 0.36516783 -0.3449614
000300 40 70 ce be 48 90 a3 be c7 84 ca be 59 cd 37 bd
       -0.40320015 -0.31946015 -0.39554426 -0.04487357
000310 2a 4a 18 bd e5 4a c5 3e 1b 1b fd 3c 52 21 a8 3e
       -0.037180103 0.38533702 0.030896714 0.3283792
000320 7a 4d 9a 3e 93 5e ce be 8c 6a ac 3c ae ff c9 be
       0.30137235 -0.4030653 0.0210469 -0.3945288
000330 a6 34 69 3e 85 2a 4d bc cf 07 a1 3e 02 ad 81 3e
       0.2277399 -0.0125223445 0.3145127 0.25327307
000340 af 8e b1 3e b7 bd 56 3b d6 78 a8 3e 12 43 c2 be
       0.3467917 0.0032766887 0.3290469 -0.37941796
000350 4f b5 84 3e e1 b3 b3 3e 20 4c 18 bf 8d ce 75 3e
       0.25919577 0.35098174 -0.5949116 0.24004574
000360 4c ab 0b bd 3c 44 ae 3e de 93 b1 3c f9 f6 c2 3e
       -0.03409891 0.34036434 0.021676954 0.3807905
000370 53 72 98 be f5 ff a6 3e 3c b5 b4 3e c0 49 90 3c
       -0.29774722 0.32617155 0.3529452 0.017613292
000380 e8 5f af 3e f9 a9 89 3e b7 32 87 3e 1f df b6 3e
       0.34252858 0.2688749 0.2640588 0.35717103
000390 5a 57 2a 3e 32 13 b7 3e 45 df a1 3e f6 8d b1 3e
       0.16634884 0.35756832 0.31615654 0.3467862
0003a0 7c d6 93 3e 3a d9 88 3e 86 8f 98 3e 84 7b c0 3e
       0.28874576 0.2672823 0.29797 0.37594235
0003b0 c1 b6 2f 3e 3d 47 91 bd d4 50 26 3d 5b b4 a9 be
       0.17159559 -0.07093666 0.040604427 -0.33145413
0003c0 28 06 06 bf e4 95 82 3e b2 c4 b7 3e f3 74 cb 3e
       -0.52353144 0.25504982 0.35892254 0.39737663
0003d0 76 69 7e be 35 b9 8d bd d9 23 6e be 95 96 9d 3e
       -0.24844918 -0.06920091 -0.23255862 0.30778947
0003e0 ba fc 91 3e 7e 78 b1 3e 3e 20 f2 3e 54 9c c3 3e
       0.28513128 0.3466224 0.47290224 0.38205206
0003f0 bc d1 c4 3e d7 d1 ac 3e c8 64 7f 3e 23 80 50 be
       0.38441265 0.33753845 0.24940789 -0.2036138

layer3.bias f4 [2]
000000 c8 83 8e 3d 99 da ee 3d
       0.06958729 0.11662788
