dqn_policy_lunar_1685674381.pt (torch, 74583 bytes, 6 tensors)

layer1.weight f4 [128, 8]
000000 ea ea 2c 3e 39 75 e0 3c 16 44 82 bf cb 28 3c be
       0.16886488 0.027399646 -1.0177028 -0.18374936
000010 6c 39 70 be ff b4 d9 bc fb 86 19 3e a5 2d 03 3e
       -0.23459405 -0.026575563 0.14992897 0.12810381
000020 fb ec 61 3e 87 60 ae 3d b7 07 21 bc 98 ab 08 be
       0.22063057 0.08514505 -0.0098284995 -0.13346708
000030 02 8c 4f 3f 1e e6 ec 3d 31 49 8d 3d 21 92 11 3e
       0.8107301 0.11567329 0.06898726 0.142159
000040 07 42 d9 be 95 39 11 bd 93 b3 aa be cb 9b 3a 3b
       -0.42433187 -0.035455305 -0.3334013 0.0028474208
000050 f4 da bd 3d bc 2c 7d be c6 d2 ce 3e 8f 1b d4 be
       0.092702776 -0.24724096 0.40395182 -0.41427276
000060 0e 16 95 3e cc c0 73 3e 78 16 fc 39 57 8c 0d 3f
       0.2911839 0.23804015 0.00048081926 0.55292267
000070 52 41 0a 3d 59 da de 3e 6d e4 61 3e b6 b7 0d bd
       0.0337537 0.4352596 0.22059794 -0.03459903
000080 51 87 8b be dd 14 58 be 96 c4 98 be 09 72 1b be
       -0.27251676 -0.21101709 -0.29837483 -0.1518022
000090 4d d8 a4 3e 83 0d 64 3e bc 9e e6 3d 46 4a e3 3e
       0.32196274 0.2227078 0.11260745 0.44392604
0000a0 89 af 8b be 10 42 99 bd a1 05 7e be be d6 b0 3e
       -0.2728236 -0.074833035 -0.24806835 0.34538835
0000b0 60 c7 97 3e b6 2c 12 3e 8c 4a 3a 3e 87 89 e4 be
       0.296443 0.14274868 0.181925 -0.44636175
0000c0 d7 6a 97 bc 09 a7 9e bb 36 27 ab 3f c8 2b 23 3f
       -0.018483562 -0.0048416895 1.3371341 0.6373868
0000d0 ea 61 f4 3d 34 d9 d4 bc 16 7b 69 3a 9c f4 93 3e
       0.11932738 -0.025982477 0.0008906586 0.2889756
0000e0 58 9f 93 3d b5 09 77 bc 6f f1 93 be 76 33 8a be
       0.07208127 -0.015077998 -0.28895137 -0.26992387
0000f0 71 01 78 bf a0 26 2a 3e 6b 8f 1a 3e 5b d2 91 3e
       -0.968772 0.16616297 0.15093772 0.284808
000100 fd 4c 9f 3d d8 10 ee 3e a2 66 8c 3d 20 83 db be
       0.07778356 0.46497226 0.06855513 -0.42873478
000110 98 ab 7a 3e 24 33 02 be 20 18 c5 be 5b 3f 7e be
       0.2447952 -0.12714821 -0.38494968 -0.24828856
000120 57 a9 c1 bd 8f f4 8e bc f3 51 a3 bd ea 61 fb be
       -0.09456127 -0.017450599 -0.07974615 -0.4909814
000130 f0 59 9e 3d a2 a9 c8 3d 2e 00 de be 12 94 44 be
       0.07731998 0.0979798 -0.43359512 -0.1919711
000140 c9 be d2 3e f3 4f 84 3d ca 03 d8 be de 70 10 3f
       0.41161183 0.064605616 -0.4219039 0.5642222
000150 cb 9b c3 be 06 98 d8 be 7f 29 0b 3f 16 07 d4 3e
       -0.38204798 -0.42303485 0.54360193 0.41411656
000160 be 2b 1c 3d 5d 8b 1b be b1 df 96 be d0 59 5a 3e
       0.038127653 -0.15189882 -0.29467538 0.21323323
000170 dd cd 1a 3c 6c 58 cd be 2b 06 ce 3e 92 0b 2d be
       0.009448496 -0.40106523 0.4023908 -0.16898945
000180 94 16 73 3e 72 b4 86 3e 1d 3c 8e 3e ff 6a eb 3e
       0.23739082 0.26309544 0.27780238 0.4598007
000190 0c 3a 57 be 80 08 f4 be c6 23 1a 3e 04 11 a5 bc
       -0.21018237 -0.47662735 0.15052709 -0.020149715
0001a0 15 48 07 3e 84 50 39 3e 86 ea 3a 3e 16 e2 8f 3e
       0.13211091 0.1809712 0.18253526 0.28102177
0001b0 d3 79 c8 be 20 ce de be b7 98 53 be 2b 79 a9 3e
       -0.39155445 -0.43516636 -0.20663725 0.33100256
0001c0 64 8c 2b 3e c4 ff 52 3e 02 01 d6 be 5b 9f 58 bf
       0.16752774 0.2060538 -0.41797644 -0.8461816
0001d0 1a 43 ae 3c 43 73 a1 bd 7b 2c 2c 3e 71 26 ec 3d
       0.02127223 -0.078833126 0.16813843 0.115307696
0001e0 7c 60 9b 3e aa 43 02 3d 67 ce 60 3f ec 8d 6b 3e
       0.3034705 0.03180281 0.87814945 0.23003358
0001f0 56 54 cb 3e 2e 7d af 3e e4 de 04 3e ef 92 bc 3e
       0.3971278 0.34275192 0.12975651 0.3683085
000200 a9 d3 1a 3e b3 ac 82 3e 1f 28 b6 be c3 86 a0 be
       0.15119804 0.25522384 -0.35577485 -0.31352815
000210 7d 16 b9 3e 6a 63 ad be 4b 7e c3 3e 92 70 8f be
       0.3614997 -0.3386491 0.3818229 -0.28015572
000220 52 65 23 be f3 20 9d 3e 66 d6 5d be 9c c2 55 be
       -0.1595662 0.306892 -0.21663818 -0.20875019
000230 7a f0 fa bd e1 13 ef 3d a7 5b c6 3e ca 58 92 3d
       -0.122528985 0.116737135 0.387418 0.071458414
000240 ad 1e 27 be f2 88 ca 3e e0 2f 6b bd bc e4 f5 be
       -0.16320296 0.39557606 -0.057418704 -0.48026073
000250 21 d7 c0 bd ff 95 c5 be 47 14 fc be a0 cf bb be
       -0.094160326 -0.38591 -0.4923422 -0.36681843
000260 e0 64 ab 3d 69 70 39 bd 87 1c cc 3e 13 b5 fc 3d
       0.0836885 -0.04527322 0.39865515 0.12339225
000270 4c 16 10 3e 17 0f 1e 3f 6d cf 29 bc b9 11 a3 3e
       0.14071006 0.61741775 -0.010364396 0.3184946
000280 d5 6a 33 3e 6c fe ce bb 09 40 ae 3f 2d 8e 0a bf
       0.17521222 -0.0063169505 1.3613292 -0.54123193
000290 ae 58 aa be 9f af c4 bc aa b8 36 bf 23 b6 dc 3e
       -0.33270782 -0.024009524 -0.71375525 0.4310771
0002a0 72 6d 00 bf b6 71 53 be bf 86 99 be 2f 4d 99 be
       -0.50167 -0.20648846 -0.29985616 -0.299417
0002b0 74 60 5f 3e b6 0d c5 be 4d d2 89 3e e0 61 db 3d
       0.21814138 -0.38487023 0.2691826 0.107120275
0002c0 d7 a0 a0 bd dd d4 a3 3e 10 15 ec 3c 36 2b bc 3e
       -0.07843178 0.3199834 0.028818637 0.36751717
0002d0 7e 92 1b bf d3 a8 8e 3e 7f 15 3b be c2 54 1f be
       -0.60770404 0.27863178 -0.18269919 -0.15559676
0002e0 97 48 bc bd 47 78 9b 3e e5 07 70 be 1f 56 d7 3e
       -0.09193533 0.30365202 -0.23440512 0.42057893
0002f0 95 2c 60 3e 4c ab 0c 3f 56 35 c6 3d e4 ec 12 3e
       0.21892007 0.5494888 0.09678142 0.14348179
000300 57 f3 6c bd aa 70 5d bd c7 ba 53 3f 59 89 40 bf
       -0.057849254 -0.054062523 0.82706875 -0.75209576
000310 80 12 86 3e ff b4 95 bc e2 45 15 bf 42 7d e6 be
       0.2618599 -0.018274782 -0.5830976 -0.4501744
000320 67 13 f1 3d c6 34 bd 3d 9e ac 10 be 37 30 86 bd
       0.11771279 0.09238581 -0.14128348 -0.06552165
000330 08 ac 18 be 98 1e 7f be b2 43 a5 be c6 c9 eb 3c
       -0.14909375 -0.24914014 -0.3227821 0.028782737
000340 ec b6 d1 3c 14 92 9d 3e 25 60 67 be 12 9e 50 bd
       0.02559992 0.3077551 -0.2259527 -0.050931998
000350 ce ca 14 3f 19 24 81 be 32 53 f2 3e 4a 53 a5 be
       0.58121955 -0.25222853 0.47329098 -0.32290107
000360 5b a1 9d 3c 44 fd c0 3e ee 18 87 3e 1b 7b 82 be
       0.01924198 0.37693226 0.26386207 -0.25484547
000370 e0 90 57 3d c5 86 9f be 4b 23 3a bf f8 b0 01 3e
       0.052628398 -0.31157508 -0.727101 0.12665164
000380 92 a1 a2 bd 18 e9 4b 3e c4 6a 53 3e 67 8e bf be
       -0.07940973 0.19913137 0.20646197 -0.37413332
000390 a2 e6 7f 3e 9f 01 59 be 68 5c be be 17 6f 68 be
       0.24990323 -0.21192025 -0.37179875 -0.22698627
0003a0 44 b1 6f be f4 df 19 3e 74 c8 69 3d e2 29 23 3e
       -0.23407465 0.15026838 0.057075933 0.15933946
0003b0 4e ca 7e 3e 01 b6 cb 3e 3d 11 eb 3e 10 87 1b 3e
       0.2488186 0.39787295 0.4591159 0.15188241
0003c0 26 b2 67 bd 6e 18 12 bd 03 b6 56 3d 95 72 87 be
       -0.05656638 -0.03566783 0.052419674 -0.26454607
0003d0 11 79 90 be 45 ba f5 be f4 ce fa 3d 35 ed 7c bd
       -0.28217366 -0.47993675 0.122465044 -0.061749656
0003e0 28 72 99 3b 4d b9 e7 ba 4c ac 5b 3d eb a0 66 bb
       0.004682798 -0.0017679125 0.053631112 -0.003519113
0003f0 63 e3 ec bf b3 46 58 3d 54 e8 50 bd 5e d1 d5 bd
       -1.8506893 0.0528018 -0.051002815 -0.10440324

layer1.bias f4 [128]
000000 77 ba 72 bb 98 02 2d be 15 35 43 3c 37 b6 ad 3d
       -0.0037037411 -0.1689552 0.011914511 0.0848202
000010 d5 5e 32 3e 34 5d 86 3e fa bf ad 3b d7 a9 be bb
       0.17418988 0.26242983 0.0053024264 -0.0058185863
000020 97 08 41 bd 77 30 1c 3e e0 44 87 3e a6 00 78 3e
       -0.047127333 0.15252863 0.26419735 0.24218997
000030 87 b5 11 3d de a8 d2 3b b1 75 3e b9 2a 92 d8 bc
       0.03557351 0.006428822 -0.00018163655 -0.026436884
000040 38 30 5d 3d 83 b2 9b 3e 90 f0 bf 3d 57 0e 8e 3e
       0.054001063 0.3040963 0.093720555 0.27745315
000050 50 e5 76 3e 3c 28 f2 3d a0 2f 2b 3e bd 70 d2 3b
       0.24110913 0.1182408 0.16717386 0.006422131
000060 d3 0f e1 3a 28 8a ce 3e 1f d6 3c 3e 86 43 b8 3e
       0.0017170854 0.4033978 0.18441056 0.35989016
000070 1b 1c 18 3e f5 34 4d bc 6a 7b 8b be 15 18 cd 3a
       0.14854471 -0.012524833 -0.27242595 0.0015647436
000080 d2 b7 a6 3e 1b e0 29 3c 4f 0e f9 3b cd fc 41 3e
       0.3256212 0.010368372 0.0076005827 0.18944092
000090 35 ce 45 be c1 9b 0b be fb 5e ff bd 0c 11 1b 3e
       -0.19316943 -0.13633634 -0.12469288 0.15143222
0000a0 52 73 9a be 74 6d c8 3d 25 8e 0a be 5d ba 2b 3e
       -0.30166107 0.097865015 -0.13530786 0.1677031
0000b0 6f f2 84 3e aa d8 b1 3e 31 64 b0 3e 0a d4 e5 3c
       0.25966212 0.34735614 0.3445144 0.02805521
0000c0 d6 4c af 3e da 53 9b 3e bb 48 ed 3d bb 5d d6 3e
       0.3423831 0.3033741 0.11586138 0.41868386
0000d0 f6 80 e5 bd 9f 76 f6 3e 5e 87 c1 bc ca 3a 72 3a
       -0.11206238 0.48137376 -0.023624118 0.00092403276
0000e0 77 12 ac 3e e2 80 88 3e 7b ef 2c 3e dc 7a 53 be
       0.33607838 0.2666083 0.1688823 -0.20652336
0000f0 59 f3 4e bc d4 ee ac bd 97 da c2 3e bc 16 50 be
       -0.012631261 -0.0844399 0.38057396 -0.20321172
000100 9b 55 15 3e 9b f2 60 3d f5 9f b3 bd bd 9f 10 3e
       0.14583437 0.054918867 -0.08770744 0.14123435
000110 05 e5 50 3e 2e 8a 97 3e 2e 62 d0 bd c8 2b e9 3c
       0.20399864 0.2959761 -0.10174976 0.02846326
000120 50 cf e4 3d e6 ac 3a 3e 31 4b 60 3e 0a eb 05 bd
       0.11172354 0.18230018 0.21903683 -0.032694854
000130 05 5a 42 3c 0c c0 0a 3d 64 24 ee 3c 5f d3 5b bd
       0.011862283 0.033874556 0.029070087 -0.053668376
000140 9b 3a cf 3e 6a aa 5c 3e 71 15 82 3e 39 cb 32 3e
       0.404744 0.21549383 0.25406983 0.17460336
000150 ea a8 a1 3e fd 5b 98 3e 2b 2e 19 be d2 8e 28 bb
       0.31574184 0.2975768 -0.14959018 -0.0025719893
000160 bb ea f0 3b a6 92 37 b9 6b 7a 4e be df 44 5f ba
       0.007352201 -0.00017506871 -0.20163886 -0.00085170375
000170 6b 6a 9c 3e 51 72 81 3e e4 ce b4 39 50 17 b7 3e
       0.3054994 0.2528253 0.0003448642 0.35759974
000180 0d 70 41 3e 48 39 83 be c2 e5 92 3d 76 25 81 3e
       0.188904 -0.2562964 0.07172729 0.25223893
000190 91 66 27 3e b5 66 ce 3d ad fb 89 be a7 d4 f7 bd
       0.1634772 0.100781836 -0.26949826 -0.12101107
0001a0 1b 92 aa bc d9 52 16 3e dc 9d c6 3c e4 a0 4c 3e
       -0.020821622 0.14680041 0.024245195 0.1998325
0001b0 27 74 39 be c2 74 7b be c6 a0 51 bd 59 da 05 3d
       -0.18110715 -0.24556258 -0.051178716 0.032678936
0001c0 07 ed 02 3e cc 30 54 3d 2a a6 5d be 82 68 a3 3d
       0.12785731 0.05180435 -0.21645418 0.07978918
0001d0 5c 6b 80 be 28 0b 78 3e 2e af 6e 3d 6b 15 94 3e
       -0.2508191 0.24223006 0.058272533 0.2892259
0001e0 6a 72 a6 3b aa b8 1a 3e 40 64 d0 3e e5 e2 18 3e
       0.005079557 0.15109506 0.40701485 0.14930303
0001f0 63 71 38 be 5f f0 a2 be 58 ad bb 3b 85 1b b0 3e
       -0.18012004 -0.31824014 0.0057274513 0.34395996

layer2.weight f4 [128, 128]
000000 99 c7 10 3f 63 62 99 3e 89 9f 90 be 7a 22 03 be
       0.5655456 0.29957876 -0.28246716 -0.1280612
000010 ba b5 2c bf 1a 4b 3e bd ea 78 40 3e e8 5d dd 3d
       -0.6746479 -0.04645834 0.18796125 0.10808927
000020 12 ed 90 3e 70 88 a1 bc f7 1d 72 bd 6a ef 0e be
       0.2830587 -0.019718379 -0.059110608 -0.13958517
000030 60 be 49 3d 2b 27 1c bd be 74 b3 3e af 1b 65 bd
       0.04925382 -0.03812329 0.35050005 -0.055934604
000040 1b 37 8a 3e e6 77 01 bd 0a a5 8b 3e a0 a1 b8 be
       0.26995167 -0.031608485 0.27274352 -0.3606081
000050 95 17 96 bd 27 a1 c8 be 10 88 e5 3d cc 86 9d bd
       -0.07328717 -0.3918545 0.112075925 -0.07691726
000060 21 7f 9c 3e a6 99 19 3d fc 6a cd 3d e0 ed 90 3d
       0.30565742 0.037500046 0.10030171 0.07076621
000070 65 3e 43 3e 7b 7b 0a bd 8d 48 4e bd 85 6a d7 3e
       0.1906677 -0.033809166 -0.05036216 0.42073455
000080 eb 44 c4 3d b6 8e 2a be f4 89 0e bd a2 24 0c bd
       0.095834576 -0.16656002 -0.03479953 -0.034214623
000090 18 55 b8 3e e0 b2 6d 3c e2 49 db be 3e ca 47 be
       0.3600242 0.014507979 -0.42829806 -0.19510743
0000a0 be 54 b2 3c 46 36 27 3d be cf 97 3d 1e 25 73 3d
       0.021768924 0.040823244 0.074126706 0.05936157
0000b0 73 c3 24 bb 84 92 dd bd 02 ba 57 3d c7 42 fd bc
       -0.002514091 -0.10818961 0.052667625 -0.030915631
0000c0 4b 46 b3 be b3 07 2e bd 8e 54 af bd a9 d6 9c 3d
       -0.35014567 -0.04248781 -0.085610494 0.07658131
0000d0 6a b5 5a be fe 0d 54 bd bb 02 c4 bc dc e9 e9 3e
       -0.21358266 -0.051771156 -0.023927083 0.45686233
0000e0 6a 61 e9 3b 90 29 71 3d 6d 4a 0f 3e 4c ea fb be
       0.0071222084 0.058877528 0.13993235 -0.49202192
0000f0 9b 01 22 bf b4 af 21 bd 96 b9 0f 3d e7 74 8e bc
       -0.632837 -0.039474204 0.035089098 -0.017389728
000100 e0 d4 0a 3d d0 73 ce be 1e 49 e8 3e af 95 76 3e
       0.03389442 -0.40322733 0.45368284 0.24080537
000110 11 61 cc 3d 39 f5 8e be ed b5 d3 bd 6a 30 83 bd
       0.099794514 -0.27921465 -0.10337434 -0.064057186
000120 2e f3 b4 bc 5f 17 ab 3c d6 80 ed 3d f2 f2 8e 3e
       -0.022088613 0.020885168 0.11596839 0.27919728
000130 90 98 08 3e 0a f2 62 be 4e 7e 54 3e 06 6b c1 be
       0.13339448 -0.22162643 0.20751306 -0.37776965
000140 0f 28 65 3d 9b 80 2e be 3b 31 8b 3d 26 b7 5f 3e
       0.055946406 -0.17041247 0.06796499 0.2184721
000150 35 dc 82 3d ed 6e 0b 3e 3e 08 c0 be 0a 66 e4 3d
       0.063896574 0.13616534 -0.37506288 0.11152275
000160 d9 2b 67 3e de e1 81 3e 59 ba 18 3e 99 f2 63 3e
       0.2257532 0.25367635 0.14914836 0.22260512
000170 66 21 4a be f6 94 e7 bd e2 22 85 3e e7 fb 1f bd
       -0.19739303 -0.11307709 0.26003176 -0.039058592
000180 a1 c5 99 bc 14 98 6a be 04 33 75 3d 74 59 1c 3b
       -0.018770995 -0.22909576 0.059863105 0.002385703
000190 1d ba 8f be 22 8d ff 3d 5c 68 5a be 5a 8c ce 3d
       -0.2807168 0.12478091 -0.21328872 0.10085364
0001a0 ee 1e e6 bd f2 d1 7f 3e 2a 36 42 bc 86 e6 14 3e
       -0.11236368 0.24982432 -0.011853734 0.14541063
0001b0 e4 e4 e0 3e 1f 31 99 bc 80 06 9e 3d 6f 77 ff be
       0.4392463 -0.01870018 0.077160835 -0.49895808
0001c0 fe a4 17 3e fd e9 4a be f6 8f 94 3e 20 3b 91 bd
       0.14809033 -0.19815822 0.29016083 -0.07091355
0001d0 2c e6 a5 be c9 de 96 be cf 44 35 3e ee 28 cc 3d
       -0.3240217 -0.29466847 0.1770203 0.09968744
0001e0 a2 b4 d2 3e 26 77 3a be 41 cc ac 3a 97 db 31 3e
       0.41153437 -0.18209514 0.0013183431 0.17368923
0001f0 14 0b 8d 3b ab 91 2a bd 57 2c 94 3e 6b 2c 03 bc
       0.004304299 -0.041642826 0.2894008 -0.008006196
000200 1d 3c 50 3d 76 8c c3 3e 8b 6e 3b bf 83 91 45 bd
       0.05083858 0.381931 -0.7321555 -0.048234474
000210 af 5c a4 be 91 31 8f be ae e8 e2 3e 79 61 f8 3d
       -0.32101962 -0.27967504 0.44318146 0.121279664
000220 e5 2c 46 3e db 5c 5b 3d b5 63 ab bd a7 6b bb be
       0.19353063 0.05355535 -0.08368627 -0.3660557
000230 3d 1b 8f bd a9 90 1d be 75 8c aa 3e 88 90 0c bd
       -0.06987617 -0.15387215 0.33310285 -0.034317523
000240 d7 64 02 3e 96 fe ea 3d c4 a3 d7 3d 31 15 09 be
       0.1273378 0.1147434 0.10529283 -0.1338699
000250 2e 1d 33 3d a8 00 0d bf a8 ab f9 3d 4a 36 8b bd
       0.043729 -0.55079126 0.12190944 -0.06797464
000260 e1 42 bd 3e 1e b8 f6 3c 2c f8 d0 3d 43 ef e0 3d
       0.36965087 0.03011709 0.10203585 0.109831356
000270 e0 11 03 3e c8 20 ae bb 1e f0 c7 be 89 de 1d 3f
       0.12799788 -0.0053139664 -0.39050382 0.61667687
000280 1a ab 3c 3e c6 83 97 bd bd 2a 6b 3d b1 fd 2b bd
       0.18424645 -0.07398181 0.057413805 -0.041989986
000290 ec 7f b1 3e 40 2f 95 be 47 c7 89 be 82 81 13 3d
       0.3466791 -0.2913761 -0.2690985 0.03601218
0002a0 17 f4 6b be be d9 3e be 5a 0a 82 bd 46 0e 61 bd
       -0.23042332 -0.1863775 -0.06349631 -0.054945253
0002b0 2a 10 97 be 66 d5 d0 3d 44 bc a1 3d 83 f8 d7 be
       -0.2950452 0.101969525 0.07897237 -0.42181787
0002c0 f3 6f be bd ba 1a 23 3e bb 45 d1 be a2 23 33 bd
       -0.09298696 0.15928164 -0.40873513 -0.043735154
0002d0 25 f7 cb be 1d ff 1c 3e 79 04 f2 bd 61 05 8b 3e
       -0.39836994 0.15331693 -0.11817259 0.2715254
0002e0 f5 47 5a be 9a 65 ef bc 57 81 2e 3e 4c b6 3a bf
       -0.21316512 -0.029223252 0.17041527 -0.7293441
0002f0 3c 6f ff be 04 53 0e be 08 0f 3d 3d 57 99 23 3d
       -0.49889553 -0.13898855 0.046156913 0.03994116
000300 3b 91 b5 3c db 5c 5b be e3 b8 d2 3e 22 b5 b3 3e
       0.022163978 -0.2142214 0.41156682 0.3509913
000310 6a 6c 27 3e 00 47 30 bc b8 57 d7 be b9 b1 1b bc
       0.1634995 -0.010759115 -0.42059112 -0.009502822
000320 5c 41 10 be f5 8b 8a be 90 70 fd 3c 21 03 c1 3e
       -0.14087433 -0.27059904 0.030937463 0.376977
000330 25 b6 4f 3d e6 6b 79 be 81 84 51 3e 0e 19 8b be
       0.050710816 -0.24357566 0.20460702 -0.27167553
000340 01 1c ef 3d df fe ce be cd e3 40 3d 40 19 da 3d
       0.11675263 -0.40428826 0.047092248 0.10649347
000350 31 f0 0d bb a3 a1 19 3e d2 c6 08 be 3f 42 36 3e
       -0.0021658058 0.15003066 -0.13357094 0.17798708
000360 7e 53 04 3f 93 c5 05 3e f3 93 ab be fb 40 c6 3d
       0.516899 0.1306365 -0.33511314 0.09680363
000370 02 db 03 be 00 bf ae 3d c8 1d 84 3e 0f 5e d7 3d
       -0.12876514 0.08532524 0.2580397 0.10515987
000380 6b a6 60 be 6d 1a 4c bf e4 52 9c bd 51 7b 82 3c
       -0.21938483 -0.7972782 -0.07632998 0.015927942
000390 00 ec bb bd 87 4f 05 3e 76 45 44 bf be 8c 9c be
       -0.09175873 0.13018619 -0.7666849 -0.30576128
0003a0 7a 58 ef be 59 04 fe 3d a7 b8 bf be 21 92 38 3e
       -0.4674719 0.12403173 -0.37445566 0.18024494
0003b0 ec 9b de 3d c1 26 0e be ed 00 17 be ab 3a 22 be
       0.108695835 -0.13881971 -0.14746447 -0.15842693
0003c0 e9 65 d2 3d e1 95 a7 bd d4 87 3e 3e 1f 39 46 be
       0.10273344 -0.08182884 0.18606502 -0.19357727
0003d0 01 4a cc be 38 1a 81 bd 9d da 97 3e e3 08 96 3d
       -0.3990021 -0.06303829 0.29658976 0.07325914
0003e0 b8 63 b3 3e b8 5f 99 3b 70 53 74 bc e4 fe db 3d
       0.35037017 0.0046806 -0.014912471 0.10741976
0003f0 16 63 cd be cd 05 8f be 05 5e 45 3e c7 08 28 bd
       -0.4011466 -0.27934113 0.19274147 -0.041023996

layer2.bias f4 [128]
000000 b9 09 8d bb 16 10 79 bc 6f 9f d1 3d a2 1a 20 3d
       -0.0043041375 -0.015201589 0.10235488 0.0390879
000010 20 e5 0f 3e de 97 fe 3d 4c 11 71 bd f6 58 cb bc
       0.14052248 0.1243131 -0.058854386 -0.024822693
000020 fc 37 de 3d e0 68 85 be 1e 6f 8a ba ac 06 19 bd
       0.10850522 -0.26056576 -0.001056168 -0.03735988
000030 2f fc f0 3c 97 a0 59 bb 30 27 6e 3d b3 a6 d9 bc
       0.029417126 -0.0033207291 0.05814284 -0.026568746
000040 c6 20 fa 3d e7 c6 63 bd f5 7b 48 3e 3e c6 0c 3e
       0.12213282 -0.05560961 0.19578536 0.13747498
000050 a1 ef 70 3d 01 32 94 3d 56 a6 c5 3d a3 49 e7 3d
       0.058822278 0.072361 0.09650867 0.11293342
000060 91 d2 3b 3c a5 fe 27 3e 3b b5 94 3d 93 6c 8f 3d
       0.011463777 0.16405733 0.072611295 0.07003131
000070 8c 1e cf bc 8d ac 23 3e 80 58 b9 bc 19 48 81 3b
       -0.02528312 0.15983792 -0.022625208 0.0039453623
000080 d1 84 4e 3d 90 cb a7 3d 4f de 01 3e 1b 6b e2 3d
       0.050419632 0.08193123 0.1268246 0.11055585
000090 a3 96 27 3d c9 f1 8b 3d 7b 3d 68 3b dd 05 9e 3d
       0.040915143 0.06833226 0.0035437036 0.07715962
0000a0 a0 f8 07 3e ff 80 ee bd e2 7f d3 bd ed bf 90 3d
       0.13278437 -0.11645698 -0.10327126 0.07067857
0000b0 30 06 1f 3e 57 97 34 bd 3b 8c 94 3d 3b de e7 3d
       0.15529704 -0.04408964 0.07253309 0.11321684
0000c0 7c a8 e7 3d 6e 9e de 3d c9 1f 52 3c f1 13 b8 3d
       0.11311433 0.10870062 0.012824961 0.089881785
0000d0 73 14 07 be 12 8f e7 3d 44 6a fd 3c 51 ad 45 3d
       -0.13191395 0.11306585 0.03093446 0.04826099
0000e0 b8 ae 91 3d e9 02 90 3d 3f ee b4 3c 6b e2 db 3b
       0.07113403 0.07031805 0.02208626 0.0067103407
0000f0 a5 53 83 bd c9 27 b8 3c 10 e0 ad 3c 47 f3 c1 3d
       -0.06412438 0.022479909 0.021225005 0.094702296
000100 8d bd a2 3d ca 04 da 3d d0 9c 99 3d 42 e8 0a 3e
       0.0794631 0.10645445 0.07500613 0.13565162
000110 85 bc bb 3d a4 a9 d7 3d 72 28 d6 3d 3f 66 a6 3d
       0.091668166 0.10530403 0.10456933 0.08124971
000120 31 2a 85 3d 0d 12 97 bc 3a 3d d4 3c 1b d6 11 3d
       0.06502188 -0.018441224 0.025908101 0.035604578
000130 44 60 05 3e fc ef 8d bd 09 e2 b9 3d de 2f 00 3e
       0.13025004 -0.06930539 0.09076316 0.1251826
000140 79 da 86 3d 39 59 90 3d ab a8 eb 3d eb 97 2a bd
       0.06584639 0.07048268 0.1150678 -0.041648787
000150 3c 17 a4 bc e4 86 32 3e a5 bb 1b bd 08 aa d2 3d
       -0.02003061 0.17434269 -0.03802075 0.10286337
000160 2e ea fe bd 83 43 3d bd ab 29 aa bd b5 0c d3 3c
       -0.1244701 -0.046206962 -0.08308729 0.025762895
000170 18 3b 08 3e 97 53 54 3d 13 75 92 3d 71 25 61 3d
       0.13303792 0.05183753 0.071512364 0.054967348
000180 a6 e6 f8 bc 31 8a 54 3e b8 b9 6d 3d 79 7e 91 bd
       -0.03038342 0.20755841 0.058038443 -0.07104201
000190 19 ef 90 3d 6c 62 75 3d 65 2a 1c 3e af 45 52 3d
       0.07076854 0.059908316 0.15250547 0.051335987
0001a0 95 10 19 3e 07 e4 c3 3d 92 4c c5 3d 29 58 01 3e
       0.14947732 0.09564977 0.09633745 0.12631287
0001b0 22 e4 fa 3d b4 5b 29 3d a7 f2 06 3d f2 73 f6 3d
       0.12250544 0.04134722 0.032946255 0.120338336
0001c0 fa 14 ea 3d 70 d8 29 be 0f 98 9a 3d 26 8d 4e 3d
       0.11429782 -0.1658647 0.07548534 0.05042758
0001d0 33 82 fd 3d c6 a4 16 3d ce 96 34 3d af 38 bd 3c
       0.12378349 0.036778234 0.04408913 0.023098318
0001e0 d5 a7 0a 3e 07 69 6b bd 8d b6 d4 bc 2e 9a 8a 3d
       0.13540585 -0.05747321 -0.025965953 0.06767689
0001f0 65 86 98 bc 19 f3 07 3e 88 6f a4 bc ab b7 c6 3d
       -0.018618772 0.13276328 -0.020072713 0.09703001

layer3.weight f4 [4, 128]
000000 c9 14 ba 3e a1 b7 a3 3e 77 a8 1a bf cf 6f e5 be
       0.36343983 0.31976035 -0.60413307 -0.44811866
000010 71 3e b1 be 8c 57 93 be f6 51 6d 3e 00 18 e7 be
       -0.34617952 -0.2877773 0.23175797 -0.45135498
000020 28 ce 01 3f 54 da fd b8 a9 5c ac be 59 40 ed 3e
       0.50705194 -0.00012104647 -0.33664444 0.46338156
000030 9b c4 ef be 57 16 c6 3e 88 6b e4 bd 6a 1b bb 3d
       -0.46829686 0.3868892 -0.111533225 0.09136088
000040 62 fe 83 3e ba 3b f4 be a6 61 13 3f fc 25 d1 be
       0.25780016 -0.47701818 0.57570875 -0.40849292
000050 1b 4e 8c 3d 1f a8 5d be d7 47 43 3f 3d 8e 93 3e
       0.06850835 -0.21646164 0.76281494 0.28819457
000060 dc 3b 09 bf b0 8d 83 3e db fb 28 be c2 f5 03 3f
       -0.53606963 0.25694036 -0.16502325 0.5154687
000070 ab ed 3a 3f f5 82 ac 3e a2 08 fd 3e 1d bb 0e bf
       0.730189 0.33693662 0.4942065 -0.5575426
000080 e8 35 d3 be de 56 d4 3e cd 08 37 be 6c 11 a0 3e
       -0.41252065 0.41472524 -0.17874451 0.31263292
000090 24 5e 29 be 7d c1 82 3e c8 23 c1 be 44 99 04 bd
       -0.16539818 0.25538245 -0.3772261 -0.032372728
0000a0 fb e3 28 bf f4 f6 09 3f bc 46 27 3f 03 58 b4 be
       -0.6597287 0.53892446 0.6534231 -0.35223398
0000b0 d0 43 0b bf a3 2e 4f bd 67 65 ce 3e 63 59 ba 3e
       -0.5440035 -0.050581586 0.4031174 0.36396322
0000c0 84 64 9f 3e 7e b0 c0 3e e3 a6 8b 3e 58 1a e1 be
       0.31131375 0.37634653 0.27275762 -0.4396541
0000d0 aa 58 e5 bd 51 d6 99 3e 7a dd b9 be 3e a2 ec be
       -0.11198552 0.30046323 -0.36301786 -0.4621753
0000e0 95 f3 b5 be 85 3b 8b be d8 bc 2f 3d 0c 41 07 3e
       -0.355374 -0.27193847 0.042904705 0.13208407
0000f0 f2 9f 2c bf 30 f0 9f be c2 57 17 3f ff 05 38 3f
       -0.6743156 -0.31237936 0.5911828 0.7188415
000100 89 09 b1 3e 46 d7 25 3f 80 ca 9b 3e 3c a2 f3 be
       0.34577587 0.64781606 0.30427933 -0.47584713
000110 72 c1 11 bf e9 17 21 3f 58 ab f1 be d3 4d a9 3e
       -0.569358 0.6292711 -0.47201037 0.33067188
000120 29 26 7c 3e 64 f8 6f 3d 7f 4d f0 3b b5 31 2c 3f
       0.24623932 0.058586493 0.007333457 0.67263347
000130 56 ca da 3e 55 74 ab 3e ee 33 c7 3e 6c 24 f2 be
       0.42732495 0.33487192 0.38906807 -0.47293413
000140 38 78 20 bf 7b 24 c0 be 70 31 8e 3e 53 a7 6a 3e
       -0.6268344 -0.37527832 0.27772093 0.22915392
000150 43 d3 94 3d 98 7f f8 be 75 3d a6 3c cc 96 39 3f
       0.072668575 -0.48534846 0.020292977 0.7249572
000160 57 79 2e be 33 b5 c6 3e f0 0e b0 3e 65 69 7d 3d
       -0.17038475 0.3881012 0.34386396 0.06186809
000170 bd bd b3 3e a9 51 e8 be 1a a6 d2 be ce 97 03 3f
       0.35105696 -0.45374802 -0.4114235 0.5140351
000180 a6 34 cb be 71 3e 6b bd 4d 85 26 be bd 07 88 3e
       -0.39688605 -0.057432596 -0.16261788 0.26568404
000190 9e b0 d4 bd 8f bf d8 be d6 be 8c be 0e 01 8a be
       -0.103852496 -0.42333648 -0.27489346 -0.2695393
0001a0 3d 89 a8 3e 9d dc c5 3e c4 69 97 be 1b 8c 4b bf
       0.32917204 0.38644877 -0.2957288 -0.7951066
0001b0 db 68 ae 3e ab 7d be be 6c 31 56 3e 9b 86 5c be
       0.34064373 -0.37205252 0.2091729 -0.21535723
0001c0 67 3a c2 3e 17 32 92 bd cb de e0 be 5b dd 7e be
       0.37935182 -0.0713846 -0.43919978 -0.24889128
0001d0 de dd 31 be 2c bf 06 bf 40 16 b2 be 42 c6 8e 3e
       -0.17369792 -0.52635455 -0.347826 0.27885634
0001e0 d3 32 b1 3e 45 07 42 3b 0d c7 9a bc 2d 85 b6 3e
       0.34609088 0.0029606384 -0.018893743 0.3564848
0001f0 06 38 8a be 37 e9 ad 3e d8 32 08 3f 3d c3 31 be
       -0.26995867 0.3396699 0.5320258 -0.17359634
000200 c9 55 ac 3e fb 69 b7 bc 18 d8 c3 be 8a d2 a7 be
       0.336592 -0.022389403 -0.38250804 -0.32777816
000210 b2 2b 75 be 95 de 93 be 30 5c 22 be 71 a0 c4 be
       -0.2394245 -0.28880754 -0.15855479 -0.38403657
000220 be 04 ff 3e fc 1a 91 be db 90 ac be af bc 19 3f
       0.49808306 -0.283409 -0.33704266 0.60053533
000230 a8 7e 72 be 22 3c b5 3e bb 7c 4a bd d2 06 df 3c
       -0.23681128 0.3539744 -0.04943536 0.027224932
000240 f5 12 a8 3e 92 bf e8 be 24 ff d7 3e e4 cb ad be
       0.32826963 -0.45458657 0.42186844 -0.3394462
000250 78 44 fe 3d ce 02 a3 be 09 42 3d 3f 16 5b c6 3e
       0.12415403 -0.31838077 0.73928887 0.38741368
000260 85 82 c4 be 54 d4 80 3e 5b 79 9a be 38 b3 2f 3f
       -0.38380828 0.25161994 -0.30170712 0.6863284
000270 d7 59 21 3f 6f 57 9b 3e 43 2e 10 3f cf a7 f1 be
       0.6302771 0.30340144 0.5632059 -0.4719834
000280 0d 78 e2 be 4a a2 e8 3e 82 d4 fd be 00 9c 6b 3e
       -0.44232216 0.45436317 -0.49576193 0.23008728
000290 cd 76 b5 be 1b 5e bf 3e 8b 7f a8 be 73 d0 9b bd
       -0.354422 0.37376484 -0.32909808 -0.07608118
0002a0 38 f4 07 bf be 71 69 3f a8 32 85 3f 55 28 49 be
       -0.53107023 0.9118918 1.0406084 -0.19644292
0002b0 7c c0 d3 be d1 00 95 bc 7f 45 dc 3e a1 03 ed 3e
       -0.4135779 -0.018188866 0.4302177 0.4629183
0002c0 32 04 ec 3e 49 63 b4 3e 23 20 df 3e 43 ef 76 be
       0.4609695 0.35232 0.43579206 -0.24114709
0002d0 aa a9 91 be ec 66 92 3e d6 a3 b7 be 4e 63 a7 be
       -0.28449756 0.28594148 -0.35867184 -0.3269295
0002e0 38 7d 23 bf d1 13 ac be 0e 93 31 3d 69 43 e1 bd
       -0.63862944 -0.3360887 0.043353133 -0.109991856
0002f0 71 e9 07 bf 0b 30 73 be c9 14 56 3f 2b bb 52 3f
       -0.5309058 -0.23748796 0.83625466 0.82316846
000300 2d e4 82 3e 0b 57 11 3f 25 67 85 3e 22 ab d2 be
       0.2556471 0.5677344 0.26055256 -0.4114619
000310 6c 79 7e be 16 0c 6e 3e f3 75 f6 be 16 a7 d9 3e
       -0.24851006 0.23246798 -0.48136863 0.4251029
000320 46 09 04 bd 86 9d de 3c 69 0f 29 bd c4 ef 4b 3f
       -0.032235406 0.027174722 -0.041274462 0.7966273
000330 11 45 d7 3e 4a 97 c6 3e 43 d2 a3 3e 6b a4 2b bf
       0.4204488 0.387873 0.31996354 -0.67047757
000340 3d 80 07 bf d1 78 a6 be 79 a9 4f 3e 19 d1 4c 3d
       -0.5293005 -0.3251405 0.20279492 0.0500041
000350 df b1 ae be 47 16 00 bf 87 f0 b0 3c f0 72 51 3f
       -0.3412008 -0.5003399 0.021599067 0.81816006
000360 93 df 71 be bb 3c 11 3f 44 ca bb 3e 53 e5 9d bf
       -0.23620443 0.5673329 0.36677754 -1.2335609
000370 fd d0 d3 3e 54 e3 b4 be b2 82 a8 be dd f7 03 3f
       0.41370383 -0.35329688 -0.32912213 0.51550084
000380 45 cd c8 be 90 9c 06 bf 3b 01 3b be a3 e2 5d bd
       -0.39219108 -0.52582645 -0.18262188 -0.054171216
000390 ee 42 ed bd 08 c2 b1 be 5c 08 05 bf 7e 3c e0 be
       -0.115850314 -0.34718347 -0.5196588 -0.43796152
0003a0 97 29 ad 3e f1 f9 b3 3e 8c c8 86 be c0 d0 07 bf
       0.33820793 0.35151628 -0.2632488 -0.530529
0003b0 06 9e d8 3e 53 67 db be 0b 91 c5 3e db 24 4b 3e
       0.42308062 -0.42852268 0.38587222 0.19838278
0003c0 e0 cf c3 3e 01 24 a0 be 4c 8a d4 be ce c9 e4 bd
       0.38244534 -0.3127747 -0.41511762 -0.11171304
0003d0 bb 90 8b bd dd 91 fe be fa 01 92 be be cc 9b 3e
       -0.068147145 -0.4972066 -0.28517133 0.30429643
0003e0 f9 83 d7 3e 40 cf 52 bd a1 0b e9 bc c4 4c 91 3e
       0.42092875 -0.05146718 -0.028447928 0.2837888
0003f0 d9 8a 93 be fe f3 98 3e c4 2f 9d 3e 29 19 f4 be
       -0.2881687 0.2987365 0.30700505 -0.47675446

layer3.bias f4 [4]
000000 14 a5 2f 3d 92 e2 f0 3b 8a 5a e8 3c da f4 d2 3d
       0.04288204 0.007351228 0.028363485 0.10300608
