dqn_policy_three.pt (torch, 71511 bytes, 6 tensors)

layer1.weight f4 [128, 4]
0	0xbf2a6f81	-0.6657639
1	0x3e9c81ff	0.3056793
2	0xbaef29e7	-0.0018246741
3	0xbedd6b7d	-0.4324607
4	0x3e0e3cce	0.13890383
5	0xbe9db41a	-0.3080147
6	0x3d741a6a	0.059595503
7	0x3e874c7b	0.26425537
8	0xbe7cbada	-0.24680653
9	0xbf14ce58	-0.58127356
10	0xbf2119f9	-0.62930256
11	0xbef4b8e7	-0.4779732
12	0x3ea8a152	0.32935578
13	0xbe31c1d2	-0.17359093
14	0xbecf3f61	-0.40478042
15	0xbeed4f9a	-0.46349794
16	0x3f6705d6	0.9024328
17	0x3e8d971a	0.27654344
18	0xbea7ddc3	-0.32786378
19	0x3e8fd26e	0.28090233
20	0xbea406f9	-0.3203657
21	0xbf29c128	-0.6631036
22	0xbf5d7e00	-0.86520386
23	0xbf0b7fba	-0.5449177
24	0xbdcd7ae3	-0.100332044
25	0xbe0c9c3c	-0.13731474
26	0x3e2c0d14	0.16801864
27	0xbdc2e267	-0.09515839
28	0xbf21ab36	-0.6315187
29	0x3edf1a9a	0.43574983
30	0x3f4133fe	0.7546996
31	0xbe893c2f	-0.2680373
32	0x3f27fc4c	0.6561935
33	0x3f03db2b	0.515063
34	0x3df578c0	0.11985922
35	0x3e674871	0.22586228
36	0x3cc0e7e7	0.02354808
37	0x3e9cd6e1	0.3063269
38	0xbf2d5267	-0.6770386
39	0xbe04d9c6	-0.12973699
40	0xbdb45e13	-0.08807006
41	0xbf0c6812	-0.548463
42	0xbfbf2750	-1.4933872
43	0xbee8eddf	-0.4549398
44	0xbf09c04c	-0.53809047
45	0xbedc6830	-0.4304824
46	0xbe8bdae7	-0.27315447
47	0x3ed8c04f	0.4233422
48	0xbeea007f	-0.45703503
49	0xbd8c1447	-0.06839805
50	0x3ed6617c	0.4187125
51	0xbd3bdafa	-0.04586313
52	0x3ee22e16	0.44175786
53	0x3eb74e25	0.35801807
54	0x3f19a7b8	0.60021544
55	0x3f070979	0.5274883
56	0xbec9446f	-0.39310023
57	0xbece2c1a	-0.40268022
58	0xbef50485	-0.4785501
59	0xbe8f6485	-0.28006378
60	0xbd842b95	-0.06453625
61	0xbe36bce9	-0.17845501
62	0xbe83c9e9	-0.25739983
63	0x3db84d7d	0.08999155
64	0x3d868186	0.065676734
65	0xbd40c06c	-0.047058508
66	0xbe1e7a5f	-0.15476368
67	0x3ec42140	0.38306618
68	0x3d8ec1ba	0.06970544
69	0x3ea396ff	0.31951138
70	0x3f9cc957	1.2248944
71	0x3ea63f4f	0.32470176
72	0xbe31142b	-0.1729285
73	0xbe81d4bd	-0.2535762
74	0xbf1e0d3e	-0.61738956
75	0x3d23611f	0.039887544
76	0x3e0e3b66	0.13889846
77	0x3e6c5519	0.23079337
78	0x3eaa2892	0.33234078
79	0x3eabcce9	0.33554772
80	0x3e4b2c06	0.19841012
81	0x3f0553cb	0.5208098
82	0xbdfedd59	-0.124445625
83	0xbeb1f3d0	-0.34756327
84	0x3e829977	0.2550771
85	0xbe950b63	-0.2911025
86	0xbf4b6e46	-0.7946514
87	0x3ee60831	0.44928125
88	0xbe2b1385	-0.16706665
89	0x3e5870b5	0.21136744
90	0xbe1760a3	-0.14782958
91	0x3e434e25	0.19072779
92	0xbe881d21	-0.26584724
93	0x3ea4f230	0.32216024
94	0xbdd17c45	-0.10228781
95	0xbd9657cc	-0.07340965
96	0xbd97cd87	-0.07412248
97	0xbf3342b4	-0.70023656
98	0xbf1bcbdd	-0.60857946
99	0xbeada7c2	-0.33917052
100	0xbee868b8	-0.45392394
101	0x3e78c7fb	0.24295036
102	0x3f6c5735	0.9232057
103	0xbd571201	-0.052507404
104	0x3e559a59	0.2085966
105	0xbe06d0ee	-0.13165638
106	0xbe335f4a	-0.17516819
107	0xbe837c17	-0.2568061
108	0xbeb40035	-0.35156408
109	0x3f0e1bf4	0.55511403
110	0x3f53ac2b	0.8268458
111	0x3eced422	0.4039622
112	0xbe609792	-0.2193282
113	0x3d8f5cc8	0.070001185
114	0x3ed21069	0.41028145
115	0x3eb35353	0.3502451
116	0xbe702c17	-0.23454319
117	0xbf239f45	-0.639149
118	0x3f34269f	0.7037143
119	0x3ef02c92	0.46909004
120	0x3e030b84	0.12797362
121	0xbf02f977	-0.51161903
122	0x3e67d825	0.22641046
123	0xbed6cc9d	-0.41952983
124	0xbd6df670	-0.05809635
125	0xbe2777a9	-0.1635424
126	0xbe098288	-0.134287
127	0x3dba38b0	0.090928435
128	0x3ebffac1	0.37495998
129	0x3e93d0bd	0.28870192
130	0xbe2e9fc8	-0.17053139
131	0x3dea69a4	0.114459306
132	0x3f201bd7	0.6254248
133	0xbed5b2ce	-0.4173798
134	0xbf7c93e6	-0.98663175
135	0x3d83cbe1	0.06435371
136	0xbd108393	-0.03528173
137	0xbe070b14	-0.1318782
138	0x3df7c564	0.12098196
139	0x3dd3c40c	0.10340127
140	0x3c280b2b	0.010256569
141	0xbe6a2f35	-0.2286957
142	0xbe70f1de	-0.23529765
143	0xbc845ba9	-0.016156988
144	0xbebc7d73	-0.3681446
145	0x3c8353d1	0.016031178
146	0x3f28b5bb	0.659023
147	0xbdc6b102	-0.0970173
148	0xbe789758	-0.24276483
149	0xbf3d4c6c	-0.73944736
150	0xbf3cfc10	-0.73822117
151	0xbf0f6463	-0.5601255
152	0x3f45a956	0.7721151
153	0x3ef075cf	0.4696488
154	0x3eab4174	0.33448374
155	0xbe1fce73	-0.15606098
156	0xbe9332ef	-0.28749797
157	0xbe0929b4	-0.13394815
158	0xbf049189	-0.5178457
159	0x3e888b61	0.26668838
160	0x3da6a491	0.08136857
161	0x3e9cacf9	0.30600718
162	0x3e0c2644	0.13686472
163	0x3d29f8a4	0.041496888
164	0x3e4d3955	0.20041402
165	0x3e9a62d2	0.3015352
166	0x3eccf011	0.40026906
167	0x3d08c3c7	0.033389833
168	0xbf091b41	-0.5355721
169	0x3d43e40f	0.047824915
170	0x3f5f0d5b	0.87129754
171	0x3e6a7591	0.2289641
172	0x3e93ec4f	0.28891227
173	0xbeb93e9f	-0.3618059
174	0xbea185eb	-0.31547484
175	0xbe3a5b02	-0.18198779
176	0x3db84c17	0.08998888
177	0xbe4d0b27	-0.20023786
178	0xbf965bb9	-1.1746742
179	0xbe79b9b7	-0.24387251
180	0xbe266ec7	-0.16253196
181	0x3ec9f638	0.39445662
182	0xbeaaf38f	-0.33388945
183	0xbdcb58b6	-0.0992903
184	0x3ef4c04b	0.47802958
185	0xbeb61003	-0.3555909
186	0xbe32cf1f	-0.17461823
187	0xbe0a90a3	-0.13531737
188	0xbe4bf6ed	-0.19918413
189	0x3d208b69	0.039195452
190	0x3f1103eb	0.56646603
191	0x3dff8023	0.12475612
192	0x3dd98381	0.106207855
193	0xbeb4b3b7	-0.35293362
194	0x3eb58e13	0.35459957
195	0x3dabec49	0.08394677
196	0x3e0c006c	0.13672036
197	0x3f151654	0.58237195
198	0xbe2fb0c1	-0.1715727
199	0xbe1e1b52	-0.1544011
200	0x3db0d76e	0.0863484
201	0xbeafbcdf	-0.34323785
202	0x3f47d09c	0.7805269
203	0xbd532561	-0.05154932
204	0x3e9b6a33	0.3035446
205	0x3f0f6c87	0.56024975
206	0x3f289d71	0.65865237
207	0x3eca26e9	0.3948281
208	0xbe21120d	-0.15729542
209	0x3ee9369d	0.4554948
210	0xbe5208bd	-0.20511146
211	0x3e181091	0.1485007
212	0xbe86bd97	-0.2631652
213	0xbf13c5bf	-0.5772361
214	0xbf30ec87	-0.6911091
215	0xbefd2477	-0.49441883
216	0x3e1b8193	0.15186147
217	0x3eeb00db	0.4589909
218	0x3f94a48e	1.1612718
219	0x3ec91418	0.39273143
220	0xbf023ebf	-0.5087699
221	0x3d08aa43	0.0333655
222	0x3eac84ac	0.3369497
223	0x3dcebda7	0.10094767
224	0xbeee30e0	-0.46521664
225	0xbde20729	-0.11036522
226	0x3f51b160	0.8191128
227	0x3e888a03	0.26667795
228	0xbef52eaf	-0.4788718
229	0xbea6ab5c	-0.32552612
230	0xbef7a884	-0.48370755
231	0xbde8845a	-0.11353369
232	0xbea6cd96	-0.32578725
233	0x3b7fae78	0.0039013904
234	0x3d01032f	0.031497177
235	0x3cfefc2e	0.031126108
236	0x3ee584a4	0.4482776
237	0x3f077115	0.52906924
238	0xbeace0c4	-0.33765233
239	0x3e9baf5c	0.30407226
240	0x3f02b9bb	0.5106465
241	0x3d7c5635	0.06160565
242	0xbef1ef8f	-0.4725308
243	0x3ecc1111	0.3985677
244	0x3dc81c05	0.09770969
245	0x3e9cc348	0.30617738
246	0xbddc18f9	-0.10746951
247	0xbe9e3234	-0.30897677
248	0x3e7b45b3	0.24538307
249	0xbe5bcff0	-0.2146604
250	0x3d6af401	0.057361607
251	0x3ed8126a	0.4220155
252	0x3e8eb442	0.278719
253	0x3ecc87b0	0.3994727
254	0xbea15f53	-0.3151804
255	0xbe0b8386	-0.13624391

layer1.bias f4 [128]
0	0xbea65d91	-0.3249326
1	0x3ea7d6a5	0.32780948
2	0xbe66053f	-0.22462939
3	0xbef4000d	-0.4765629
4	0x3e65f1da	0.2245554
5	0xbe3624f6	-0.17787537
6	0x3ed0e466	0.40799254
7	0x3dd2a429	0.10285217
8	0x3c2aeb36	0.010432055
9	0xbedd0ffd	-0.4317626
10	0xbe42b47e	-0.19014165
11	0x3dc324cf	0.09528505
12	0x3ed8e5e9	0.42362908
13	0x3e61655c	0.22011322
14	0xbd1ce105	-0.038300533
15	0x3ee00cfe	0.43759912
16	0x3eafb93c	0.3432101
17	0xbe20fed7	-0.15722214
18	0x3e849a5a	0.2589901
19	0x3f3b4432	0.7315093
20	0xbed19c87	-0.40939733
21	0xbd4144aa	-0.047184624
22	0x3f08a2fa	0.5337368
23	0x3eec9f4d	0.46215287
24	0xbe49a049	-0.1969005
25	0x3ede5425	0.43423572
26	0x3ec5af54	0.38610327
27	0x3dad381a	0.08457966
28	0xbebcf004	-0.36901867
29	0x3dc36aac	0.095418304
30	0x3ef86966	0.48517913
31	0x3f41f4e7	0.75764316
32	0x3f04e89a	0.5191742
33	0x3d8aab38	0.06770939
34	0x3f439ca4	0.7641089
35	0x3f0cd076	0.55005586
36	0x3ea51d34	0.32248843
37	0xbd1f65c7	-0.03891542
38	0x3d27ddf4	0.040983155
39	0x3f0c007c	0.5468824
40	0x3f1306ac	0.57432055
41	0x3ea2d0fc	0.31800067
42	0xbea1b28b	-0.3158153
43	0x3ea79441	0.32730296
44	0xbe2916c0	-0.16512585
45	0xbf01111f	-0.5041675
46	0x3ec8164d	0.39079514
47	0x3f0d81fd	0.5527647
48	0xbece7507	-0.4032366
49	0x3e91f80f	0.28509566
50	0xbea57dfd	-0.32322684
51	0xbe71fabc	-0.23630804
52	0x3f2c07c6	0.6719936
53	0xbe8a3981	-0.26996997
54	0xbe3b76b9	-0.18307008
55	0x3f0269cc	0.50942683
56	0xbf045355	-0.51689655
57	0xbe02acc2	-0.12761214
58	0x3eaf3e41	0.34227183
59	0x3ea37c15	0.31930605
60	0x3edf4f89	0.43615368
61	0x3eea9de6	0.45823592
62	0xbea5eeb5	-0.32408682
63	0xbea51a42	-0.32246596
64	0x3f1d81f4	0.6152642
65	0xbe916f4a	-0.2840522
66	0x3eadfe44	0.33983052
67	0x3e28d7af	0.16488527
68	0xbe5d643c	-0.21620268
69	0x3e63b040	0.22235203
70	0x3f26b623	0.6512167
71	0x3da41f05	0.08013729
72	0x3e515342	0.20441917
73	0x3b86130e	0.004091627
74	0xbec111d3	-0.3770891
75	0x3e4cd048	0.20001328
76	0x3f0eb4ba	0.55744517
77	0xbec21a9e	-0.37910932
78	0x3ea1adcf	0.31577918
79	0x3ea0a11e	0.31372923
80	0x3ea4768b	0.3212169
81	0x3db0d6b9	0.08634705
82	0x3e69eaac	0.22843426
83	0xbe820f06	-0.25402087
84	0x3ed47ff0	0.4150386
85	0x3eb6b91e	0.35688108
86	0xbe1c005b	-0.1523451
87	0xbd73c873	-0.059517335
88	0xbebeb0e8	-0.37244344
89	0x3ea80dd8	0.32823062
90	0xbed1cb99	-0.40975645
91	0xbe2da3c4	-0.16957003
92	0x3f1144d3	0.5674564
93	0x3f2189b0	0.6310072
94	0x3ef9c115	0.48780122
95	0x3f234c61	0.6378842
96	0xbdb7880b	-0.08961495
97	0xbeb71224	-0.35756028
98	0x3e4f0930	0.20218349
99	0xbee29065	-0.4425079
100	0xbeb0eae6	-0.34554213
101	0x3dbe4b30	0.09291685
102	0x3effd1e4	0.4996482
103	0xbe88aa8e	-0.26692623
104	0xbf196163	-0.59914225
105	0xbed64a44	-0.41853535
106	0x3f2acddb	0.6672036
107	0xbe3915c2	-0.18074706
108	0xbe4011e1	-0.1875682
109	0x3e9100b8	0.2832086
110	0x3eb64141	0.3559666
111	0xbee97e2f	-0.45604083
112	0x3ea4b62e	0.32170242
113	0xbeb54fe5	-0.35412517
114	0x3f3697bb	0.7132527
115	0xbedda388	-0.43288827
116	0x3f00cf18	0.50316
117	0xbe92ecb4	-0.28696215
118	0xbdaa63a2	-0.08319785
119	0x3f1982cf	0.59965223
120	0x3ebfd02a	0.37463504
121	0xbf0cf4a0	-0.5506077
122	0xbee42324	-0.4455806
123	0xbf00d697	-0.5032744
124	0x3eaaedb5	0.3338448
125	0xbe72f2dd	-0.23725457
126	0x3ef3105d	0.47473422
127	0xbea410ef	-0.3204417

layer2.weight f4 [128, 128]
0	0xbb7be5e3	-0.0038436584
1	0xbc873a90	-0.016507417
2	0x3e0bdd66	0.13658676
3	0x3e89d4cc	0.26920164
4	0x3d8bfd9e	0.06835483
5	0x3ddbeff0	0.10739124
6	0xbd093cd2	-0.03350527
7	0xbd6c675f	-0.05771577
8	0x3dfd324e	0.123631105
9	0x3e3b8648	0.18312943
10	0x3f2a6e5a	0.66574633
11	0x3d26bffc	0.040710434
12	0xbda99d5d	-0.08281968
13	0x3c7016c6	0.014653867
14	0xbd46d323	-0.0485412
15	0xbd426fb2	-0.047469802
16	0x3c170485	0.009217386
17	0x3ef56a2c	0.47932565
18	0xbcc396a1	-0.023875536
19	0xbe03379a	-0.12814179
20	0x3d9f6780	0.07783413
21	0xbbb8f7bf	-0.005644768
22	0xbc49a4de	-0.012307374
23	0x3d77dab8	0.06051132
24	0xbf078096	-0.5293058
25	0x3cfadae3	0.030621951
26	0xbccc4264	-0.024934001
27	0x3f08199d	0.5316408
28	0x3e8315a8	0.2560246
29	0x3d1afd50	0.037839234
30	0xbe35459c	-0.17702335
31	0xbe1a3700	-0.15060043
32	0xbdc59057	-0.09646671
33	0x3e0839f5	0.13303359
34	0xbdfbdc41	-0.122978695
35	0xbd59aae7	-0.0531415
36	0x3b420267	0.0029603483
37	0x3d992492	0.07477678
38	0x3b15e080	0.0022869408
39	0xbc4b67c8	-0.01241488
40	0x3b86e10d	0.0041161836
41	0x3d5d73d8	0.054065555
42	0x3e856a1e	0.26057523
43	0x3d7ea3b2	0.06216783
44	0x3f067748	0.5252576
45	0x3e6469d8	0.22306001
46	0x3d71ceb5	0.05903502
47	0xbd85be0f	-0.065303914
48	0x3dd4c614	0.10389343
49	0x3d3aa67f	0.04556894
50	0x3ed4c2b6	0.41554803
51	0x3e623d5d	0.2209372
52	0xbd5b243a	-0.053501345
53	0x3ef8cbe7	0.48593065
54	0x3f28f4ce	0.6599854
55	0xbd90e719	-0.070753284
56	0x3ebb6dff	0.36607358
57	0x3e90fb16	0.28316563
58	0xbd1960ae	-0.037445717
59	0xbd2b342c	-0.0417978
60	0x3c33e9f7	0.010981075
61	0x3b7b9efe	0.0038394327
62	0x3d968678	0.07349867
63	0x3dcfa2dc	0.10138485
64	0xbdcb9591	-0.09940637
65	0x3dc8385e	0.09776376
66	0xbd126f46	-0.03575065
67	0x3e47c16d	0.1950738
68	0x3e3c0e49	0.18364824
69	0xbc85e645	-0.016345153
70	0x3da13519	0.07871456
71	0x3ebd74de	0.37003225
72	0x3b9a16e0	0.004702434
73	0x3e777c5b	0.24168532
74	0xbd48a568	-0.04898587
75	0x3cda3738	0.026637658
76	0xbc955dc1	-0.018233182
77	0x3e3c099c	0.1836304
78	0x3e056fc5	0.13030918
79	0xbe03b5f2	-0.12862375
80	0xbcaf6655	-0.0214111
81	0x3e063048	0.13104355
82	0x3cdd31b1	0.027001234
83	0x3da12349	0.07868058
84	0xbc351334	-0.011051942
85	0xbc8a6f1f	-0.01689869
86	0x3dacc426	0.0843585
87	0x3ef67c21	0.48141578
88	0x3df0ac71	0.117516406
89	0xbd8e25c7	-0.06940799
90	0xbd9d48b7	-0.07679885
91	0x3e6f58a9	0.23373665
92	0xbd202296	-0.039095484
93	0x3d820dd1	0.063502915
94	0xbda6c559	-0.0814311
95	0xbe3b94d4	-0.18318492
96	0x3e2c39b6	0.1681889
97	0x3dfb91f4	0.12283698
98	0xbc4a7adc	-0.0123583935
99	0x3dbbcdb4	0.09170094
100	0x3dafe762	0.08589055
101	0x3da4aa17	0.080402546
102	0xbdfc7c10	-0.123283505
103	0x3dd66463	0.10468366
104	0x3dd19273	0.10233011
105	0x3e627980	0.22116661
106	0x3d8b5f44	0.0680528
107	0x3e8247a8	0.25445294
108	0x3e82dd75	0.25559583
109	0x3b783770	0.003787484
110	0x3d6a26be	0.057165854
111	0x3ec4d190	0.38441133
112	0xbdaa3906	-0.083116576
113	0x3d3b67d8	0.04575333
114	0xbe0d8adc	-0.13822502
115	0xbc4128c0	-0.011789501
116	0x3d731bd3	0.059352707
117	0x3e092692	0.1339362
118	0x3d8986b9	0.067151494
119	0xba901004	-0.0010991101
120	0xbd96fd9a	-0.073725894
121	0x3e49bc13	0.19700651
122	0x3d6c72c2	0.05772663
123	0x3e87680d	0.26446572
124	0x3da4309a	0.080170825
125	0xbd1d9b37	-0.038478103
126	0x3c82ebea	0.015981633
127	0x3e54dbc9	0.20786966
128	0xbed4b0bf	-0.41541097
129	0x3e2eff13	0.1708949
130	0x3c59db13	0.01329686
131	0x3e21b292	0.15790775
132	0x3e02e170	0.1278131
133	0x3e3a65a9	0.18202843
134	0x3e2d951d	0.16951413
135	0xbe872a96	-0.26399678
136	0xbf8b7905	-1.0896307
137	0x3e327500	0.17427444
138	0x3e584f35	0.21123965
139	0x3d43a913	0.047768664
140	0x3e4ce88c	0.20010585
141	0x3da9fa7e	0.08299731
142	0x3e6fd16a	0.23419729
143	0x3dcf27b4	0.10114995
144	0x3e05f11c	0.13080257
145	0xbf38b17b	-0.72145814
146	0x3e8e78b9	0.2782648
147	0x3dc91e35	0.09820215
148	0x3f081c4e	0.5316819
149	0xbdb2619c	-0.08710024
150	0x3de5449a	0.11194725
151	0x3e3b4cdc	0.18291038
152	0xbea58691	-0.3232923
153	0x3def0277	0.11670392
154	0x3dc4dd66	0.09612541
155	0xbea7a85b	-0.32745633
156	0xbdfc33e1	-0.123145826
157	0x3cddb34f	0.02706304
158	0x3e32f7ee	0.1747739
159	0x3e43000f	0.19042991
160	0x3e37a1b0	0.17932773
161	0x3e386cb3	0.18010215
162	0x3d3ce84f	0.046119984
163	0x3de2c274	0.11072245
164	0x3e8b4dff	0.27207944
165	0x3e022959	0.12711085
166	0xbf2e1e8e	-0.6801537
167	0x3e2efd45	0.17088802
168	0x3d255aa7	0.040369656
169	0x3e1959f1	0.14975716
170	0xbceb2a8d	-0.028706813
171	0x3e978b5a	0.29598504
172	0xbe1b384e	-0.15158197
173	0x3e125e18	0.14293706
174	0x3e67b159	0.22626247
175	0x3e09aaa0	0.13443995
176	0x3e4d7cd5	0.20067151
177	0x3d212005	0.039337177
178	0xbd89ec63	-0.0673454
179	0xbf26ec64	-0.65204453
180	0x3db2d6c8	0.087323725
181	0xbe5bf3fe	-0.21479794
182	0xbf812708	-1.0090036
183	0x3d9b71be	0.07590054
184	0x3dda3c66	0.10656051
185	0x3eb5f7fa	0.35540754
186	0x3e47f4bd	0.19526954
187	0x3c9e96ee	0.019359078
188	0x3d89c7f5	0.06727592
189	0x3d407c29	0.04699341
190	0xbe463b68	-0.19358599
191	0x3f0cc87d	0.5499342
192	0x3e2c11d4	0.16803676
193	0xbea0338f	-0.31289336
194	0x3e856d85	0.2606012
195	0xbf8d4b1e	-1.1038549
196	0xbf819783	-1.0124363
197	0xbea78208	-0.32716393
198	0x3dbc2e4c	0.09188518
199	0x3e7e1292	0.24811772
200	0x3d491be5	0.049098868
201	0x3e8ffab0	0.28120947
202	0x3bd49805	0.0064878487
203	0xbd7636db	-0.060110908
204	0x3d86ada4	0.06576088
205	0x3dfc8d8e	0.12331687
206	0x3d999c0d	0.075004674
207	0x3e5549ed	0.20828982
208	0x3e8d5df8	0.27610755
209	0xbf2335b2	-0.6375381
210	0x3e63c39a	0.22242585
211	0xbd839b27	-0.06426077
212	0x3de69ea7	0.11260729
213	0x3e495657	0.19661842
214	0x3d773054	0.060348824
215	0x3e5f6d69	0.2181908
216	0xbd44697e	-0.047952168
217	0xbcdef1a7	-0.027214838
218	0x3d808bd9	0.06276674
219	0xbeee408f	-0.4653363
220	0x3d5ed0d9	0.05439839
221	0x3e46d018	0.19415319
222	0x3ded0348	0.115728915
223	0x3d9ec99a	0.07753296
224	0xbf75c69d	-0.96006185
225	0x3d84ed09	0.06490523
226	0x3d87419b	0.0660431
227	0xbba493ce	-0.0050225025
228	0x3dccedbc	0.10006282
229	0xbe967ecf	-0.29393622
230	0x3e252a26	0.1612936
231	0xbcce3f5a	-0.025176693
232	0xbe04e4f8	-0.1297797
233	0x3e67ff1e	0.22655913
234	0x3e2a7301	0.16645433
235	0x3d526020	0.051361203
236	0xbf766030	-0.9624052
237	0x3e0c83cd	0.13722153
238	0x3d15134c	0.036395356
239	0xbd8f0b7c	-0.06984612
240	0x3eb318b2	0.3497978
241	0x3ed7090f	0.419991
242	0x3cc81f6e	0.02442905
243	0x3d9fb87d	0.0779886
244	0x3dbc4a93	0.091939114
245	0x3f03967a	0.51401484
246	0xbf356b03	-0.7086641
247	0x3e0003dd	0.12501474
248	0x3e5f960d	0.21834584
249	0x3eb883e6	0.3603813
250	0x3eab554d	0.33463517
251	0x3e3f2a43	0.18668465
252	0x3e5fc9d4	0.21854335
253	0x3e3abaaf	0.18235277
254	0x3de6c12b	0.112673126
255	0xbe6df93a	-0.23239604

layer2.bias f4 [128]
0	0xbccdfd11	-0.025145086
1	0x3e1e669b	0.15468828
2	0x3c81b93e	0.0158354
3	0x3ba1a3c6	0.0049328534
4	0x3e9f2ae2	0.31087404
5	0x3dba4f7c	0.09097192
6	0xbd954f6b	-0.072905384
7	0x3e0531aa	0.13007227
8	0xbd8905f9	-0.06690592
9	0x3ebd3a4a	0.36958534
10	0x3d981a4d	0.074268915
11	0xbd64cf54	-0.055861786
12	0xbe282179	-0.16419019
13	0x3e0aebd9	0.13566531
14	0x3e48ae45	0.19597729
15	0x3e36de2c	0.1785819
16	0x3e24bb47	0.16087066
17	0xbde9cc9b	-0.114159785
18	0x3e8f0df4	0.27940333
19	0x3eb1b1cc	0.3470596
20	0x3d6c7e87	0.057737853
21	0xbc81b604	-0.015833862
22	0x3db2363d	0.087017514
23	0x3ebac655	0.3647944
24	0xbc7b8dfe	-0.015353678
25	0xbde6415a	-0.112429336
26	0x3e08a533	0.13344269
27	0x3ea56c99	0.32309416
28	0x3dfeda27	0.12443953
29	0x3e1305cf	0.14357685
30	0xbc96e8ce	-0.018421557
31	0xbc8178e1	-0.01580471
32	0x3d80e8d3	0.06294408
33	0x3da251dd	0.079257704
34	0xbab7fae7	-0.0014036567
35	0x3e1e5b35	0.1546448
36	0x3e3b46e8	0.18288767
37	0x3ea3591c	0.31903923
38	0xbddd2003	-0.107971214
39	0x3e8d17c8	0.27557206
40	0x3e9c3520	0.3050928
41	0x3db318f7	0.08744996
42	0x3e811d1e	0.25217527
43	0x3ccb1282	0.024789099
44	0x3d3f425a	0.046694137
45	0xbe291aa8	-0.16514075
46	0x3e8df238	0.2772386
47	0x3e60e7bc	0.219634
48	0x3e4e31bf	0.20136164
49	0xbb138b07	-0.0022513287
50	0xbd982f2b	-0.074308716
51	0x3d8ac7a8	0.06776363
52	0x3e6f37e6	0.23361167
53	0x3dcec772	0.10096635
54	0x3d9ca700	0.0764904
55	0x3d30da16	0.043176733
56	0x3d2217b0	0.03957337
57	0x3da7cc29	0.08193237
58	0x3e42939c	0.19001621
59	0x3cb403b5	0.021974424
60	0xbdab0f41	-0.08352519
61	0x3d4957e0	0.04915607
62	0x3e9a77b9	0.30169466
63	0xbdeb684d	-0.11494503
64	0x3b8cfba3	0.0043024584
65	0x3e85a761	0.26104262
66	0x3e6a73b3	0.22895698
67	0xbe2351ec	-0.1594922
68	0x3d03f340	0.032214403
69	0x3e9f64d5	0.31131616
70	0x3c99b8b3	0.01876483
71	0xbd81d978	-0.06340307
72	0x3e5d48a7	0.21609746
73	0x3e26b45f	0.16279744
74	0x3c8100cb	0.015747448
75	0x3d364fe0	0.04450977
76	0x3e8845e3	0.2661582
77	0x3e0e0b97	0.13871609
78	0xbdaa4447	-0.08313804
79	0x3dc0b8ef	0.09410273
80	0x3e0d4a3e	0.13797852
81	0x3e0dd1d1	0.1384957
82	0x3ea1ea68	0.3162415
83	0xbdd832a6	-0.105565354
84	0x3df3f4e7	0.11911946
85	0x3e9be2df	0.30446526
86	0xbba2fb01	-0.0049737697
87	0x3daf3a6f	0.08556067
88	0x3e685aa6	0.2269083
89	0x3e1b73d1	0.15180899
90	0xbddca916	-0.10774438
91	0xbdac789e	-0.084214434
92	0xbd81531b	-0.06314679
93	0x3ea05303	0.31313333
94	0x3da1bff3	0.078979395
95	0x3d873045	0.066010036
96	0x3a92f2a8	0.0011211233
97	0x3dbce9d4	0.09224287
98	0x3e1191f0	0.14215827
99	0x3e05f3b7	0.13081251
100	0x3d4a4876	0.04938551
101	0x3d7f7047	0.062362935
102	0x3e65e8b5	0.22452052
103	0xbdb4754f	-0.08811437
104	0xbd694c73	-0.056957673
105	0xbd973095	-0.07382313
106	0xbe096dd3	-0.13420801
107	0x3ce0dce6	0.027449083
108	0x3bab141b	0.0052209026
109	0x3ea56fcc	0.32311857
110	0x3dd95177	0.10611241
111	0x3dec21d8	0.11529893
112	0x3ddc6af9	0.10762591
113	0x3cda2162	0.026627246
114	0x3e4f4bb1	0.20243718
115	0xbd4efa7b	-0.050531846
116	0x3e441f3d	0.19152541
117	0x3e6f92ab	0.23395793
118	0x3e6887f1	0.22708108
119	0x3e252f5a	0.16131344
120	0x3e9a9c68	0.30197453
121	0x3ea7bc89	0.32761028
122	0xbda6a96d	-0.08137784
123	0x3d28ae2a	0.04118172
124	0xbd68b4b7	-0.056812968
125	0xbd2eccd3	-0.042675804
126	0x3e326521	0.1742139
127	0x3d515577	0.051106896

layer3.weight f4 [2, 128]
0	0xbe9cdeec	-0.30638826
1	0x3e852045	0.26001182
2	0x3ec37591	0.38175634
3	0xbefcee02	-0.49400336
4	0x3e912312	0.2834707
5	0x3eb53ac1	0.35396388
6	0x3c19cad3	0.009386736
7	0x3eb00c1c	0.3438424
8	0x3d912ec1	0.07088996
9	0x3eab905d	0.33508578
10	0xbea6867e	-0.32524484
11	0xbea6abd4	-0.3255297
12	0xbe89d0f2	-0.26917225
13	0x3eecaa6c	0.46223772
14	0x3ebb649a	0.3660019
15	0x3efc31b4	0.4925667
16	0x3eac5fff	0.3366699
17	0xbf167e8f	-0.58786863
18	0x3ebc250a	0.3674701
19	0x3e794b19	0.24345054
20	0xbe1d0eac	-0.15337628
21	0x3d172664	0.036901847
22	0xbe9483be	-0.2900676
23	0x3ea7707f	0.32703015
24	0xbd553c2d	-0.05205934
25	0xbebd7928	-0.37006497
26	0x3ea540f3	0.32276115
27	0x3e54b3ba	0.20771685
28	0x3eaaf9c9	0.33393696
29	0x3ed8ee5f	0.42369363
30	0xbd6eee8e	-0.058332972
31	0xbe7eb538	-0.24873817
32	0x3c8556f1	0.016276808
33	0x3ee307ae	0.44341797
34	0xbe5ef731	-0.21773984
35	0x3e95023f	0.29103276
36	0x3ecf981f	0.40545747
37	0x3ecd9adc	0.4015721
38	0xbe37a118	-0.17932546
39	0x3eb4fe89	0.35350445
40	0x3ec1356a	0.37736064
41	0x3eddf197	0.4334838
42	0x3e858081	0.26074603
43	0xbd168b89	-0.036754165
44	0xbb484a35	-0.003056181
45	0xbe966abe	-0.29378313
46	0x3ee6e2b4	0.45094836
47	0x3eb7b4b2	0.35880047
48	0x3edeb271	0.43495515
49	0xbeb298ca	-0.34882194
50	0xbe32da29	-0.17466034
51	0x3ec3727f	0.3817329
52	0x3e99b311	0.3001943
53	0x3ec69256	0.3878352
54	0x3e2c12f6	0.16804108
55	0x3e915b87	0.28390142
56	0xbef496c7	-0.47771284
57	0xbe2de49d	-0.1698174
58	0x3ec7fba1	0.39059165
59	0xbeda1e8f	-0.4260144
60	0x3b7baa95	0.0038401235
61	0x3d187f52	0.037230797
62	0x3ec87000	0.3914795
63	0xbecc6736	-0.39922494
64	0x3c91dc71	0.01780531
65	0x3ec76b09	0.3894885
66	0x3e24d34c	0.16096228
67	0xbe79ec13	-0.24406461
68	0xbda20786	-0.07911591
69	0x3eb5c405	0.35501114
70	0xbc2b1339	-0.010441595
71	0xbd264d11	-0.04060084
72	0x3ecb1fd9	0.39672735
73	0x3ea6282e	0.3245253
74	0xbe3bfa94	-0.18357307
75	0x3dbdbbfa	0.09264369
76	0x3ea591aa	0.32337695
77	0x3eb85b43	0.36007127
78	0xbec013d5	-0.3751513
79	0x3edaa312	0.42702538
80	0x3eecdcc2	0.46262175
81	0x3e555036	0.2083138
82	0x3ebc83d2	0.3681932
83	0xbe9966be	-0.299612
84	0x3ee72c09	0.45150784
85	0x3ece6558	0.40311694
86	0x3d853f83	0.065062545
87	0x3ecf3c3d	0.40475646
88	0x3e35843e	0.17726228
89	0x3ea776f9	0.32707956
90	0xbe627bed	-0.22117586
91	0x3d9a642e	0.07538639
92	0x3e04eafe	0.12980267
93	0x3ea7523b	0.32679924
94	0x3f044455	0.51666766
95	0xbd73c98f	-0.059518393
96	0xbea1cfb6	-0.31603783
97	0x3ee7dcf1	0.45285752
98	0x3ebe5731	0.37175897
99	0x3eb9e076	0.36304063
100	0xbc4473f7	-0.011990539
101	0xbecb22a5	-0.3967487
102	0x3e9bda5e	0.30440038
103	0xbe7613e9	-0.24031033
104	0x3e8c24c7	0.2737181
105	0xbe097067	-0.13421784
106	0xbebb44c1	-0.36575893
107	0xbe47c14b	-0.19507329
108	0xbe27835c	-0.16358703
109	0x3ed1516d	0.40882435
110	0x3ebafe08	0.36521935
111	0xbdbd83bd	-0.09253643
112	0x3eeeffe7	0.46679613
113	0x3ee34fc9	0.4439681
114	0x3eb7f0fa	0.35926038
115	0xbe7d5516	-0.24739489
116	0x3f0a29c1	0.5396996
117	0x3ebec20d	0.37257424
118	0x3ebae001	0.36499026
119	0x3ed3ca4b	0.41365275
120	0x3ec9c0e7	0.39404985
121	0x3eac4c7e	0.3365211
122	0xbddc087f	-0.10743808
123	0xbd6b6990	-0.05747372
124	0xbd549717	-0.051901903
125	0x3b4e5238	0.0031482112
126	0x3ebec4a9	0.37259415
127	0xbe4446e8	-0.19167674
128	0xbe96e4aa	-0.29471332
129	0xbe85be6a	-0.26121837
130	0x3eec00b3	0.46094283
131	0x3e1cc1ee	0.15308353
132	0x3ec9ec4d	0.39438096
133	0x3ef098b3	0.469915
134	0x3da7c4b8	0.08191818
135	0x3e7fb837	0.24972616
136	0xbccce8aa	-0.025013287
137	0x3ea6b2bc	0.32558239
138	0x3e7859bd	0.24252982
139	0xbe33f193	-0.17572622
140	0xbeed31e6	-0.46327132
141	0x3e85051f	0.2598047
142	0x3e878928	0.2647183
143	0x3ed1a415	0.40945497
144	0x3ea9bc3d	0.33151427
145	0xbe8371d5	-0.25672784
146	0x3ebe85ad	0.37211362
147	0x3ec31d0c	0.38108099
148	0x3e6876eb	0.22701614
149	0x3f056e5b	0.52121514
150	0x3e977db4	0.2958809
151	0x3ebac36e	0.36477226
152	0xbbce2209	-0.0062906784
153	0xbefe4e4c	-0.4966911
154	0x3f050e06	0.51974523
155	0x3ece0678	0.4023931
156	0x3d7d6deb	0.061872404
157	0x3ef2084e	0.4727196
158	0xbda83fc9	-0.08215291
159	0x3c09a2cf	0.008400633
160	0xbd8951a3	-0.06705024
161	0x3ef8d887	0.48602697
162	0xbeca5fc2	-0.39526182
163	0x3ec531dd	0.38514605
164	0x3eca1fef	0.39477488
165	0x3e95a9d2	0.29231125
166	0xbe87a05f	-0.2648954
167	0x3ec04b2f	0.3755736
168	0x3eb280ff	0.3486404
169	0x3edaef67	0.42760774
170	0x3ec90443	0.39261064
171	0x3b849ae1	0.0040467833
172	0xbc71386e	-0.014722927
173	0xbeae1148	-0.3399756
174	0x3ecc3ece	0.39891666
175	0x3ee02150	0.43775415
176	0x3eb50382	0.3535424
177	0xbecc9609	-0.39958218
178	0xbeb5644c	-0.35428083
179	0x3ee33905	0.4437944
180	0x3ecadc94	0.39621413
181	0xbed50b19	-0.4161003
182	0xbe972a7b	-0.29524598
183	0x3f01ea11	0.5074778
184	0xbe3376b5	-0.17525752
185	0xbf02e285	-0.5112689
186	0x3ec73a59	0.38911703
187	0x3c01e546	0.007928198
188	0xbd8dd12d	-0.06924663
189	0xbd810d26	-0.06301336
190	0x3effa8a7	0.4993336
191	0xbeabfe10	-0.33592272
192	0xbd84191d	-0.064501025
193	0x3e9195ee	0.284347
194	0x3ec17fa3	0.37792692
195	0xbed37baa	-0.41305286
196	0xbecd4dea	-0.40098506
197	0x3eaa9dce	0.3332352
198	0xbd25325a	-0.040331222
199	0x3d33ee69	0.043928538
200	0x3e674274	0.22583944
201	0x3eb40654	0.35161078
202	0xbd7bdcca	-0.061489858
203	0xbeba2c89	-0.36362103
204	0x3eeab2ed	0.45839635
205	0x3e9e21e8	0.30885243
206	0xbedcdb5c	-0.43136108
207	0x3ec75a8f	0.38936278
208	0x3e707100	0.23480606
209	0xbe462d14	-0.19353133
210	0x3e862b76	0.26205033
211	0x3d999b4f	0.07500326
212	0x3ebc795f	0.3681135
213	0x3e79588f	0.24350189
214	0x3d9be5bb	0.07612177
215	0x3ee23a7f	0.44185254
216	0x3ebdf7ee	0.37103218
217	0x3ee41d9a	0.44553834
218	0xbe34a6f1	-0.17641808
219	0xbeb2d2ac	-0.34926355
220	0xbe35eb9a	-0.17765656
221	0x3e97f6a3	0.29680356
222	0x3f0b7521	0.544756
223	0x3d8a34c7	0.06748348
224	0xbd1cb301	-0.03825665
225	0x3ee7d368	0.45278478
226	0x3ea43e4b	0.32078776
227	0x3effe87e	0.49982065
228	0xbc8e407c	-0.017364733
229	0xbeef8744	-0.46782887
230	0x3ec87b2b	0.3915647
231	0x3da37d2a	0.079828575
232	0xbea6e431	-0.3259597
233	0xbf13bc21	-0.57708937
234	0xbd9a20b3	-0.07525768
235	0xbdb4c7e5	-0.08827189
236	0x3ea8dc1c	0.3298043
237	0x3e694c37	0.2278298
238	0x3edd0b03	0.43172464
239	0x3e6492c9	0.22321619
240	0x3efa7794	0.48919356
241	0x3ef4224d	0.4768242
242	0x3ed73aad	0.42036954
243	0xbe9a3dcc	-0.30125272
244	0x3eb4a2f9	0.35280588
245	0x3e91ba75	0.28462568
246	0x3ef6fbdd	0.4823903
247	0x3ee898fe	0.45429224
248	0x3e86d1ab	0.2633184
249	0x3eb13b9d	0.34615794
250	0xbea64c70	-0.32480192
251	0xbc81cb45	-0.015843997
252	0xbd7fa538	-0.062413424
253	0x3d36fe10	0.044675887
254	0x3ef72736	0.48272103
255	0xbdbf98c7	-0.09355312

layer3.bias f4 [2]
0	0x3d78c71b	0.060736757
1	0x3da87bdd	0.0822675
